test/sagemaker_tests/mxnet/inference/resources/onnx/onnx_model/model.onnx (onnx, 438774 bytes, 6 tensors)

fullyconnected0_weight f4 [128, 784]
00000000: 60ec 7f3a f862 f33a c806 8d3b 349e e13b
00000010: a8b1 063b 5095 ea3b 3051 6b3a 2c93 e33b
00000020: 6822 c8ba 18f5 213b f039 3f3b 108b 17bb
00000030: f5ce a2ba 6cea 84bb 3401 003c 9245 11bc
00000040: daee 173c f2fd 94bb 8ac6 18bb c032 eab9
00000050: 582f bf3b 3895 cc3b 107e 173a 60f4 d1b9
00000060: e85f b23a 7487 0cbb a275 0b3c a840 dc3b
00000070: 1a90 0cbc ca20 55bb 1b4a 07bc 3c36 423b
00000080: 3035 1dbc 69ba 2cbb 6197 d53b 83b0 113c
00000090: 5dd7 aa3b 14b6 eabb f492 fa3b 7b8e fd3b
000000a0: 0ccd 223c dff3 f7b9 65dc c33b f016 aa3b
000000b0: 115e e9ba 2839 a739 f5ef b93b bf62 6c3b
000000c0: c8ef f5bb 70df 933b 0dbf 353b 35d6 d13a
000000d0: 64bb e9bb 80f1 433a 88b5 113c 807c a93b
000000e0: a018 e539 de22 01bc 32b4 dfba 19c5 1fba
000000f0: 68ea 9abb 5421 cdbb 6b6f b83b 4788 a33b
00000100: 6f6b e8b9 30ff 97bb bb10 4b3b df45 77bb
00000110: 4894 f0bb 3964 9cb8 2d0b 093c 46d4 7bba
00000120: bab4 a43b a7d0 38bb 3c99 923b b24a 26ba
00000130: 70a1 133c 3f7c 173c 6068 a53b 5eb3 4eba
00000140: 0a39 37bb db15 133b 2011 a5ba 72d7 033c
00000150: 0285 813b cd4e 03bc 8732 10bc 415a 163c
00000160: 656a 763b fced 5b3b c9fa 953b 4538 a5bb
00000170: 2586 a8bb e05d 2b3a 92b3 24bb 9e8b 253c
00000180: 8572 60bb 0c52 b03b fe24 6d3b 930f 243c
00000190: e30e 9b3a b7c5 9f3b 4254 3ebc b376 fbbb
000001a0: 627c b1bb 02e3 723c 7c94 4cbb bd13 6ebb
000001b0: b3a7 fbbb ac1e 01bb 44d6 ccbb e8ea 12bb
000001c0: 386d 4abb e775 5e3b d95e 08bb c73a 0f3c
000001d0: ca51 b13a 10f1 e03b 5f46 bcbb c030 58bb
000001e0: af7f 453b 532a 463b 322b 3cba 3abb 203c
000001f0: a491 ff3c 5e95 673c 6bd0 ad3b e8e2 ba3c
00000200: b8ff a03c af52 653c d9b7 b93b 1bc3 323c
00000210: e659 2e3c fff3 f33b 174e 1aba 429c 6a3c
00000220: 5eea b0bb dd0a b63b 047e b93b 4c6b 8d3b
00000230: a270 193c 486a c63b 6c3d 74bb c666 14bc
00000240: f9f9 5b3a d801 88ba beed d13b a146 2c3c
00000250: 67df 883c c120 d33c 3f85 ba3c bc82 343d
00000260: 3711 b83c c8df 143c 48a9 acbb 31ab 35bb
00000270: cfbc 7f3a 8f94 0f3c 5a5e 4c3b 582d 483c
00000280: a939 933a 1ae4 df3b 9149 173c 7dc2 83bb
00000290: b107 ecba fea9 11bc bb56 6e3b f66a 89bb
000002a0: aece 71bb 1f92 eabb 2d2e 753b 68c9 853a
000002b0: 805d 3639 ae4f 183b cd85 2ebc 7f87 e7ba
000002c0: 6ee8 ae3c 1998 833c 4435 c83c 4fa6 423d
000002d0: 324e 3c3d 8346 ba3c 54ac a1bb 3b78 98bc
000002e0: 805c 71bc c7c9 cfbc 25af 75bc 8ab4 febb
000002f0: 6da7 07bc 6b28 66bc c08f 06bc 1563 80bc
00000300: 5513 03bc 90fd fe3b a58f 8dbb a803 ffbb
00000310: bec9 a7ba eef2 cebb 2be0 1ebc 5c99 7d3b
00000320: fe2b 4cbc a8fd 2c3c 4837 48b8 4e55 03b9
00000330: c358 1b3c 8718 c13c 291b 233d 1858 463d
00000340: 9e9c 173d 7579 8a3b 7eb1 17bc 169c 08bb
00000350: 1dfb 18b9 e653 f6bb 5343 86bc 5157 20bc
00000360: 1f1e 3bb9 13b6 3fbb ee95 82bc 9e1a 3cbc
00000370: 5d4a c2bb dba9 b33b f42f 833b 7598 d63a
00000380: ca13 cebb b36a 8c3b 0da5 d93b fa03 ffbb
00000390: 36b3 e4bb 664c 8b3b 6878 243b 90cc 93ba
000003a0: f05f 193d 8419 433d 0cfc 2f3d 77d4 913d
000003b0: 3c44 31ba c361 67bd eaf7 21bd 87af 2f3c
000003c0: e452 b93b 48d7 60bc a444 b1bc d922 0bbd
000003d0: aa06 33bb e392 353c 3e09 a1bc bd1c 67bc
000003e0: 805a 943b dd93 ed3a d929 d8bb e7b9 9a3b
000003f0: 51a8 b7bb 0917 bf3a 8ba7 43bb 0fd9 28bc
0.00097627006 0.0018568924 0.004303787 0.0068853144 0.0020552669 0.0071589127 0.00089766365 0.0069450345
-0.0015269043 0.0024712738 0.002917882 -0.002312366 -0.0012421297 -0.0040562656 0.007812787 -0.0088666845
0.009273255 -0.004546874 -0.0023311698 -0.0004466977 0.0058345012 0.006243374 0.00057789776 -0.0004004566
0.0013608905 -0.002144304 0.008511933 0.006721575 -0.008579278 -0.0032520765 -0.008257414 0.0029634377
-0.0095952 -0.0026356226 0.00651829 0.008892181 0.0052136616 -0.0071628187 0.0076469127 0.0077379323
0.009936582 -0.0004729321 0.005977201 0.0051907226 -0.0017804523 0.00031895307 0.005674357 0.00360696
-0.007505391 0.00451272 0.0027732283 0.0016009273 -0.0071329344 0.0007474646 0.008893378 0.0051723123
0.0004369663 -0.007881848 -0.0017067252 -0.00060947385 -0.0047276504 -0.0062600765 0.0056285164 0.0049906108
-0.00044330533 -0.004638575 0.0030985314 -0.0037730855 -0.0073418953 -7.4573276e-05 0.008364481 -0.00096065213
0.005026427 -0.0028200538 0.0044738334 -0.0006343528 0.009010658 0.009245931 0.005047843 -0.0007885004
-0.0027957582 0.0022443447 -0.0012593605 0.008046972 0.0039526233 -0.008014393 -0.008801109 0.009176792
0.0037600037 0.0033558598 0.004577015 -0.0050421082 -0.0051429444 0.0006537121 -0.0025131446 0.010104088
-0.0034247946 0.0053808745 0.003618538 0.010013479 0.0011829998 0.0048758644 -0.011616768 -0.007674062
-0.005416439 0.014824631 -0.0031216433 -0.0036327683 -0.0076799034 -0.001970212 -0.0062511284 -0.0022417847
-0.0030887853 0.0033944787 -0.0020808487 0.008742041 0.0013528403 0.0068646744 -0.0057456936 -0.0032988042
0.003013592 0.003023763 -0.00071780675 0.009810263 0.031197377 0.014134733 0.0053043864 0.022813275
0.019653186 0.013996764 0.0056676683 0.010910775 0.010641551 0.007444858 -0.000588627 0.014319481
-0.0053990325 0.005555494 0.005660774 0.0043157693 0.009365233 0.00605515 -0.0037268056 -0.009057706
0.0008391436 -0.0010376526 0.006406515 0.010514886 0.016708089 0.025772454 0.022768615 0.04406999
0.022469146 0.009086557 -0.0052692033 -0.0027720446 0.00097556127 0.0087634465 0.0031184168 0.012217842
0.0011232394 0.0068326117 0.009233848 -0.0040209875 -0.0018007663 -0.008890627 0.0036367613 -0.004193659
-0.0036896872 -0.0071585323 0.0037411556 0.0010207118 0.00017391704 0.0023240852 -0.010652018 -0.0017664282
0.021351065 0.016063737 0.024439462 0.047521885 0.04597301 0.0227387 -0.004933873 -0.018612018
-0.014731526 -0.02536477 -0.014995371 -0.007772987 -0.0082796635 -0.014047722 -0.008212984 -0.015672246
-0.008000215 0.007781692 -0.0043201023 -0.0077824183 -0.0012801213 -0.0063155806 -0.0096970005 0.0038696146
-0.01246166 0.010558523 -4.77352e-05 -0.00012524912 0.009481612 0.023571266 0.039820824 0.048423856
0.037014596 0.0042259046 -0.009258626 -0.0020844988 -0.00014589397 -0.0075173257 -0.016389525 -0.009786443
-0.0001784493 -0.0029252812 -0.015940633 -0.011480955 -0.005929275 0.005482895 0.004003519 0.001637234
-0.00628898 0.0042851805 0.00664199 -0.0077824565 -0.0069793714 0.0042510508 0.0025096182 -0.0011276174
0.03744501 0.047631755 0.04296498 0.071206026 -0.0006762182 -0.056489717 -0.03954307 0.010723001
0.0056556333 -0.013723202 -0.021639176 -0.03396878 -0.0027317205 0.011082384 -0.019657727 -0.014105973
0.00452739 0.0018125732 -0.0065967855 0.0047218683 -0.0056047817 0.0014579009 -0.0029854502 -0.010305657

fullyconnected0_bias f4 [128]
00000000: bb08 3c3d 2877 ce3d eb0b 8d3d 5d7d 67bc
00000010: 5549 c4bc 1a0b cd3b 2e25 083d 4493 2b3a
00000020: 6191 a03a 41ae 543d 0228 19bd 5376 d83c
00000030: d116 2a3c ca36 0cbc 3fb3 bfbd c5db 0eb9
00000040: 6bf9 1e3c c415 18bc b4de cc3d d76c 43bd
00000050: 06a9 fd3a 3a80 b9bd e9e4 d9bc 7712 efbb
00000060: 0f15 a0bc f5b7 7abc 15eb 4c3d 2cd5 9cbc
00000070: f73a 0b3d 92af fbbd 446e 79bd 60fa f23c
00000080: e306 b1bc 9c99 4139 a6c6 d2bc 20cb 2c3d
00000090: c931 03be 13ab 4abe f34a 3abe e6ed 343d
000000a0: 5ca5 393c d6dc 683c 707f 663c 0f56 b03d
000000b0: 683e 00bc 2768 64bd 774d 8c3d ead8 2b3c
000000c0: d79f ea3c b55a 68ba 2070 69bd 273e d8bd
000000d0: f020 0d3d 77a2 1f3d d7e7 3fbb bc37 eb3b
000000e0: 7503 12be f3f8 e73c 9072 30bd 9233 5ebd
000000f0: 3451 a33b 61bb 8e3c 1689 b43d ceb9 a83c
00000100: 104c 053c d66c c8bc 3769 5abb d2c4 813c
00000110: f7a3 9d3d 214e ea3b 6cb2 d63c 8580 3b3d
00000120: 2186 3b3d 20de 0c3d 70d7 3d39 20c3 20bd
00000130: cec9 1a3d 04d2 bdb9 99fe 4e3d 0f00 b13b
00000140: fe12 2c3d 3a48 503d dd0d 3a3d 6877 893d
00000150: 522a d43c ff2d 343d b1e4 423d 79e5 a93d
00000160: 5733 bc3c 98cf 193d 81ab a03c 7a42 453c
00000170: 4970 d43d 7bad 793d 98a7 08bd 8202 3e3c
00000180: 2e80 bf3d 3630 df3c 3a17 d33c dd74 edbb
00000190: 26a3 a23d 6a57 b3bc 00b3 a13d 9121 c73c
000001a0: adf5 bcbb 6d1a 3b3d b655 9e3c 9175 66bc
000001b0: 53b7 403d 154e dc3c 4bf9 0bbd 4a8f 10bb
000001c0: 47f1 a93d bd4c 40bc 4baf 833d 304e 8e3c
000001d0: 573f 99bd 0e43 dfbc 89ab 023d 632e 783d
000001e0: e548 813d e7c6 443c 1bed b03d 42ac 64bd
000001f0: 51e9 a6bc 85d5 dc3c c8e0 99bc 2ca6 003d
0.045906764 0.10081321 0.06887039 -0.01412901 -0.023960749 0.006257427 0.033238582 0.00065450766
0.0012250358 0.051923994 -0.03739167 0.026423609 0.010381416 -0.008557985 -0.0936036 -0.00013624046
0.009703021 -0.009282533 0.10003415 -0.04771122 0.0019352741 -0.090576604 -0.02659841 -0.0072959024
-0.019541292 -0.015302648 0.05002888 -0.019144617 0.03399178 -0.12289347 -0.060896173 0.029660404
-0.02160973 0.00018463138 -0.025729489 0.042185903 -0.1281196 -0.19791822 -0.18192653 0.04417219
0.011330929 0.014212808 0.014068469 0.086101644 -0.007827379 -0.05576339 0.06850713 0.010488728
0.02864067 -0.0008863614 -0.056991696 -0.105587296 0.03445524 0.038973298 -0.0029282474 0.007178275
-0.14259131 0.02831695 -0.043078005 -0.0542484 0.0049840454 0.017423334 0.088152096 0.020596411
0.0081358105 -0.02446596 -0.0033326873 0.015840922 0.076972894 0.007150427 0.026208125 0.045776863
0.045782212 0.034391522 0.00018104701 -0.039248586 0.037790112 -0.00036205363 0.050535772 0.0054016183
0.0420103 0.05085013 0.045423377 0.06712228 0.025899086 0.043989178 0.04758138 0.082957216
0.0229737 0.037551492 0.01961303 0.012039775 0.10372979 0.06095646 -0.033362955 0.011597278
0.0935062 0.027244668 0.025767911 -0.007246597 0.07941274 -0.021892268 0.0789547 0.024307998
-0.0057665915 0.0456795 0.01932798 -0.014066116 0.04704983 0.026892701 -0.03417329 -0.0022058063
0.08297973 -0.011737046 0.06429919 0.017371267 -0.07482784 -0.027253654 0.03190187 0.060591113
0.06312732 0.012010313 0.08638974 -0.05582834 -0.020374926 0.026957283 -0.018783942 0.031408474

fullyconnected1_weight f4 [64, 128]
00000000: d3b9 9ebb 85c8 86bc 36e9 123d 5868 8abc
00000010: 0608 5f3d b0cd 6d3b 6a6f a73a 956a 133c
00000020: b15e 05bc f65d e33b 18a5 0bbb e2d1 583c
00000030: 176e 11bc 7e30 6b3c 4449 4e3a 0903 c83a
00000040: 2f49 63bc 4639 a8bb 15f3 64bb fe19 e93a
00000050: 9ae5 843a 9986 fa3b 9ab8 22bc f464 b3bc
00000060: 0904 3abc 58fc 7fbc 07e5 123c 4a98 90bc
00000070: 1e20 c5bb a76d 513c e89d 5cbc 2b09 593b
00000080: 4d8d 2cbc 7cc3 103c 234f 3b3c 0b62 73bc
00000090: 00f7 04ba 3aef e03b 0aca 8dbc 2d25 95bc
000000a0: 11d5 d5bc 31dc e63b 4750 843b c78a 803c
000000b0: e622 93bb c758 95bc c815 8e3c a527 6bbc
000000c0: 7be6 043d 6ab5 7eba 42bf 153c 385f 4bbb
000000d0: e36c 41bc ec30 8c3a 7065 2dbc 7783 c23c
000000e0: 19d8 5ebc 3749 79bc c7ec 93bc 94a7 d1bb
000000f0: d1f5 91bc 9e0f 0e3b 2b07 083c cd17 f83b
00000100: 1ac4 03bb e961 323a 5147 b8bc 28c0 f53a
00000110: f1e2 303b 600e 6d3c adc2 4d3c ac90 923b
00000120: 51bd e1bc e479 b03c 2d67 55bb 5de4 e23a
00000130: 5046 f83b ae16 3e39 57f8 f73b 8107 e9bb
00000140: 1885 2e3c 568b 3f3c d535 233c c561 04bd
00000150: 4fdf 8ebb 83df 733b 54ce 813b bb33 67bc
00000160: 3455 1abc 247f 293c 666e 2c3c b5ce cabc
00000170: ec1e abbc 569a b6bb b835 6bbc 6637 2e3c
00000180: 600b 383b a170 0dbb d2c5 113d ae7d 0fbc
00000190: 2fe9 debb b89d 283b 84d8 5cbb 8bb0 873b
000001a0: 1721 84bb 6d97 7e3c 65bf c3bc 4e72 4d3b
000001b0: e949 303a b6d2 bc39 2165 67ba fb5d d03b
000001c0: f8f7 ef3c f15f 80bb 2a80 13bc cd1a b5bb
000001d0: 1b2a 8dbc 590d 783c 2dc1 ec3a 8004 523d
000001e0: ce6c 24bc 318a 8e3c 6bcf 1f3c bf28 03bc
000001f0: ae48 7e3c c580 453c d77f 273c 5a61 45ba
00000200: e170 1e3c 7c90 d23b 3ad7 93ba 4266 9c3b
00000210: 1552 0cbc b8bc 113c ae80 76bb baef cf3b
00000220: 26f7 e53b 6957 abba 5bf8 16bb 5128 b3bb
00000230: 9ed1 1abc 6c81 8a3b 1fcb b0bb 3c8e bdba
00000240: 7758 18bc 45a2 f83b 993d 1d3c 3cec 033c
00000250: fbdb 053c 959d 07bb 5ae7 8a3b ce98 ef39
00000260: 86b4 d03a c510 0b3b f8d2 b23b 7549 b2b9
00000270: 38e5 d1bb dbd3 d43b 7800 93bb c22b a2ba
00000280: 019a 2439 b2b8 81bb 55f1 65bb 6108 a63b
00000290: 8143 1abc b163 f33b 3491 fb3b f774 5c3b
000002a0: 2a08 f1ba 8aa3 6239 a3b0 49ba 68ef fa3b
000002b0: c2b1 7abb 63d3 dc39 2f5a afbb 4422 f03a
000002c0: 1530 17bb 18eb 0abb 2e8a cd3b e329 c53b
000002d0: e328 a63b 4632 2bbc 81c4 13bb d051 753b
000002e0: 6ff1 40bc 9a3a 50bb c38f 973b 7a6d 04bc
000002f0: 5627 a5bb e528 21bb 0d5a 853a 9dfe ec3b
00000300: 7f3c 8dba 7bbd 11bc b650 dbbb c95e a23b
00000310: a949 cebb 3065 1dbc 1e30 9db7 a7b1 a53b
00000320: e52e 1abc c18e 143b 6951 76ba d592 bdb9
00000330: 7712 67bb 9ed6 2bbb c290 733b 9c85 8fba
00000340: 4aa6 2e3b 13c1 16ba 1bc8 593b 3923 c03b
00000350: 8a08 5c3b 985c 69bb 7598 18bb 23d2 bc3b
00000360: aa23 1d3b 5628 8bb9 9dd6 5dbb b5a0 abb9
00000370: 0ee4 8b39 15c6 dd3b d36b 7fbb a148 8e38
00000380: db1b 83b9 cafd 00bc 4a69 10bc 1aa5 91bb
00000390: 0c78 bfbb 8f15 a93b 800b 193c d5da 7bbb
000003a0: 6ebe b2bb 44d9 25bc 5aea 7a3b 77dd 83ba
000003b0: 2496 3d3b 280f 2dbc f178 7a3b b1f7 0dba
000003c0: 9463 6eba 41e8 e93b efdf b83a 808f e6bb
000003d0: 568d 1dbc cf83 f73b 8a67 0abc 2f58 85bb
000003e0: 9b06 dcbb 1d91 07bc 6b35 04bc 0a21 0f3c
000003f0: a07f 05bc 882e 8c3b d1de f8bb e94b ab3b
-0.0048439293 -0.016453037 0.03586694 -0.016895458 0.05445101 0.003628593 0.0012774293 0.008997579
-0.008140252 0.0069386913 -0.002130812 0.013233634 -0.008876345 0.014354823 0.0007869194 0.0015259694
-0.013872429 -0.0051337807 -0.0034934927 0.0017784236 0.0010139227 0.00764544 -0.009931708 -0.021898724
-0.011353501 -0.015624128 0.008965737 -0.017650742 -0.0060157916 0.012782491 -0.013465382 0.0033117037
-0.010531736 0.00883567 0.011432442 -0.014854918 -0.0005072206 0.0068644555 -0.017308254 -0.018206203
-0.026102575 0.007045292 0.00403789 0.015691174 -0.004490244 -0.018230809 0.01734437 -0.014352714
0.032446366 -0.0009716364 0.009139838 -0.0031032097 -0.011805746 0.0010695732 -0.010583267 0.023744328
-0.013601326 -0.01521521 -0.01805724 -0.0063981507 -0.01781741 0.002167679 0.00830249 0.0075711966
-0.00201059 0.0006804751 -0.022494944 0.0018749284 0.0026990736 0.014468759 0.012558621 0.0044728126
-0.027556093 0.021542497 -0.0032562718 0.0017310489 0.0075767413 0.00018128261 0.007567446 -0.0071114902
0.010651849 0.011690935 0.009961565 -0.032319803 -0.0043601166 0.003721208 0.003961364 -0.014111455
-0.009419728 0.010345254 0.010524368 -0.024756769 -0.020888768 -0.0055725975 -0.014356069 0.010633325
0.0028082952 -0.0021582025 0.035589047 -0.008757992 -0.0068027 0.0025728773 -0.003369839 0.0041409186
-0.004032265 0.015539032 -0.023894975 0.0031348648 0.00067248807 0.00036015146 -0.000882702 0.0063588596
0.029293045 -0.003917687 -0.009002725 -0.0055268765 -0.017231992 0.015139901 0.0018062942 0.051273823
-0.010035707 0.01739988 0.009754042 -0.00800532 0.015520258 0.012054627 0.0102233505 -0.000752946
0.009670467 0.0064259153 -0.0011279352 0.0047729323 -0.008564492 0.008895092 -0.003761332 0.0063457163
0.007017988 -0.0013072315 -0.0023036215 -0.0054674526 -0.009449391 0.004226854 -0.0053953077 -0.0014461945
-0.009298435 0.0075877034 0.009597206 0.008051928 0.008170123 -0.0020693291 0.004239005 0.0004569948
0.0015922941 0.0021219712 0.0054572783 -0.00034005535 -0.006405499 0.0064949817 -0.00448614 -0.001237266
0.0001569763 -0.003958785 -0.0035086472 0.005066917 -0.009415508 0.0074276556 0.0076772217 0.0033639052
-0.0018389274 0.00021613963 -0.00076938624 0.007657934 -0.0038252925 0.00042119165 -0.005351327 0.0018320759
-0.002306943 -0.0021197256 0.006272576 0.006016956 0.005070792 -0.010448998 -0.0022547545 0.0037432797
-0.011776312 -0.003177321 0.004625292 -0.008082742 -0.0050400896 -0.0024591025 0.0010173932 0.0072325007
-0.0010775476 -0.008895273 -0.006692971 0.004955147 -0.006295402 -0.0096066445 -1.8738265e-05 0.005056578
-0.009410595 0.0022668096 -0.00093962863 -0.00036158288 -0.0035258809 -0.002622045 0.003716514 -0.0010949853
0.002664941 -0.0005750816 0.0033230844 0.005863574 0.0033574426 -0.0035608169 -0.002328423 0.005762355
0.0023977556 -0.000265422 -0.0033849843 -0.00032735398 0.0002668206 0.006767998 -0.003897418 6.784616e-05
-0.0002500702 -0.007873008 -0.008814165 -0.0044447305 -0.005843168 0.0051600407 0.009341121 -0.0038429995
-0.00545483 -0.010122601 0.0038286657 -0.0010060509 0.0028928602 -0.010562696 0.003821906 -0.0005415632
-0.0009093818 0.0071382825 0.0014104823 -0.0070361495 -0.009616217 0.0075535546 -0.008447537 -0.00406935
-0.0067146546 -0.008274344 -0.008069376 0.0087359045 -0.008148104 0.004278008 -0.007594921 0.005227555

fullyconnected1_bias f4 [64]
00000000: 3128 78bc 1624 d1bb 9bd2 f13d 2bd6 9e3d
00000010: 82e3 15bb 1346 f3b9 6b43 163d d3de a6bb
00000020: b588 053e a632 713a e2af 96bb e27c 323c
00000030: 7066 0f3e 04af 18bd b328 a8bc b126 a039
00000040: 4f64 38bc a392 ec3d a7ec 333e de6e cc3d
00000050: baa9 553d 0129 debd 1d09 793d 4fa2 963d
00000060: 26d1 1b3e 79b4 a43a 6530 50bb ee78 d53d
00000070: 5ef1 d73c fe7e 763b 8143 cc3d fc15 15bd
00000080: d5e4 ecba d033 843c 6058 953e 6fba 813d
00000090: 618b dfba 0fd6 943d b170 433d 7806 20bd
000000a0: bd7c 8ebc ef6a 23ba 8483 a7bc b4d3 1f3d
000000b0: 7f57 ec3d 814c 813c 2f43 87ba 1035 863b
000000c0: 7b83 3b3d fee0 b33b 6687 063e 648a 813d
000000d0: 204b 9c3d 4a1c 8237 78ab 81bb d102 18bb
000000e0: acff 3eba 1a24 6abc 0bd3 c93c 2080 393d
000000f0: fe38 aebd d081 2f3d 16d1 c13d e293 373b
-0.015146301 -0.0063824756 0.11807748 0.07755693 -0.00228712 -0.0004640078 0.03668539 -0.0050924807
0.13040431 0.00092009676 -0.0045986036 0.010894032 0.1400392 -0.037276283 -0.02052722 0.00030546405
-0.011254384 0.11551406 0.17570744 0.09982084 0.052163817 -0.108476646 0.060799707 0.07355177
0.15216503 0.0012565992 -0.0031767127 0.10423456 0.02636021 0.0037612314 0.09973813 -0.03639792
-0.0018073568 0.016137987 0.29168987 0.063343875 -0.0017055088 0.07267391 0.047714893 -0.03906867
-0.017393464 -0.0006233891 -0.020448454 0.039020255 0.11540126 0.01578355 -0.0010319705 0.004095681
0.045779686 0.0054894676 0.13137588 0.06325224 0.076315165 1.551038e-05 -0.0039572082 -0.0023195038
-0.0007286023 -0.014290834 0.024636766 0.045288205 -0.08506964 0.04284841 0.09463708 0.002801173

fullyconnected2_weight f4 [10, 64]
00000000: 4ac5 a93d c0bd f23b 1dd5 f6be ab18 4dbe
00000010: 2ae6 7a3b 80ba 9f3a 6b30 5c3c d6a2 e93b
00000020: 2470 f7be 5386 603b 0259 be3c 964c 453e
00000030: f30d a6be 53c8 193f bd94 dbbe df13 05bc
00000040: 8c9e 0f3f 0de1 35bf 53db d23e 6521 38bf
00000050: 6c80 943e ac8c 523f 929a 02bf 90dd 0c3e
00000060: a3a1 543d b9b7 ed3b 95b1 24bd 4310 d1be
00000070: a4c3 1037 f9a3 9fbc dbc5 063f f8f0 563e
00000080: b01c c3bb bf55 0fbe 2f3b 05bf ae43 a2bd
00000090: beb3 48bc 82c3 fe3d c876 0f3e 5214 f63e
000000a0: 5e61 b3bd 3a18 933b 5cb7 17be e131 8bbe
000000b0: 5532 96be 21e6 113d 53c6 92bb 5b44 843d
000000c0: 082b b63d 85d3 5dbe ba96 bcbd 61a1 59bd
000000d0: cf2a c2be c6a4 383b 638a b8bb f844 023c
000000e0: 52e8 133d 7177 b43b 0968 e43e c723 d5be
000000f0: c465 273f 016b 553e f87c 7cbe ca8c edbb
00000100: c889 793c 417a b53a a199 1e3f 9407 353e
00000110: c2c3 56bb 9220 aa3b cc0d fabc 2e8d 3bbb
00000120: 6d27 b93e cfe9 a5bd 5b4b 47be a91b b73c
00000130: 0f38 ae3e bf07 e2be 45b5 b03e 5341 6ab8
00000140: 8f83 aebe d67c acbd 5c5b 1ebf 9eb3 3a3f
00000150: 4ac9 3c3d bf55 30bf 0ca3 ec3e 7ebb a23d
00000160: f221 e7be 9e50 233c caf3 ae3c fe61 313e
00000170: e72a b5bd 4125 0abc 3279 88be 521a c1bd
00000180: 84c6 023b d381 d3bd d34a ff3c f178 683e
00000190: 8cc3 153b 6355 bcbe 37cd b8bd 3b08 b6be
000001a0: 2aa4 98bd b9d9 1dbc b62a 4f3e 088b 9a3c
000001b0: 774b 91bc 349b 82bd a458 043c 8faf d33b
000001c0: 5a7d e7bc cb64 29bd 42d7 9bbe b153 12be
000001d0: 6191 353f e84f d93b 8f88 553b 02e5 773a
000001e0: 7ee4 383c 3e17 b3be 41dd b1be b4db 943d
000001f0: 3c6d 1ebf 1997 ccbd 90e7 023f fea9 cfbb
00000200: dded 04bd 703d 70bb e992 19bd 6422 61be
00000210: 24c4 1cbb c75c b53b 748a a23d 79db 053c
00000220: 002f 8fbe 0670 51bd 91a9 abbe 7d22 653d
00000230: 7133 79be 3c48 e33d 12ea 1e3f 205c 4bbb
00000240: 5bb9 e3bd 4f7a 01bf 548a 8fbd e1d9 553f
00000250: 4235 6dbc 441d 713c 7ec1 e03e ca07 523e
00000260: e233 e8bd 2aa1 be3b 4535 50bd 3166 e5be
00000270: c106 65bd e3dc 243c c734 f43e 991e cdbc
00000280: d543 a23b fa32 6dbd ba25 38bf 077e 173e
00000290: bd1d d73b 47b0 353f 82cc 833e 7b7c 98be
000002a0: 10a8 69bc c574 67ba 5f8f 0a3f 1661 44be
000002b0: 53ed d9be 6bd3 073e 7b19 d73b 461b 263d
000002c0: 2ce5 60bd 3ec9 d8be a176 8a3d ac76 be3c
000002d0: 1c76 353e 0337 c93b 59b8 d43a 839d cb3b
000002e0: f2ec a8bb b9ff e2be ffbf 0ebe ab5b c83e
000002f0: a573 64bd d848 413e 8e12 04be 2346 1e3c
00000300: ebed 4e3c cf13 85bb 7559 f03d b66a 6cbe
00000310: 099a 143c c767 573b 5052 383b 9728 95bb
00000320: f053 0c3f 6335 fabd 56bd d43e 5109 9bbd
00000330: 2708 28be c6fe bebd bf28 493e a77d d13b
00000340: a3cc 303e 0d2a 99be 3ca0 7f3e ba7c 0f3f
00000350: ad9a 1dbe 0fac 653e d286 023f 2260 2ebf
00000360: 06c1 2ebc 0ae4 8e3b 39be 593d a664 fd3e
00000370: 75eb c93e 7b2e 113e 5937 7abc cd8a d2be
00000380: 59d9 ceba 72af 0d3d 45dd dcbe ef77 5bbd
00000390: 2c20 bebb c4d3 a5bd 628e 1bbe 548b c63d
000003a0: eacf b13e 58e0 c1bb bbf4 9abd 6a5e 1c3f
000003b0: 2499 8bbe e0bd 35bd fbb2 cf3b 9fb2 95bd
000003c0: 9064 ac3d 5bb0 c23e ebef c4be 8889 37be
000003d0: e8ff 65be db9b d6bb b76c 323c d4d7 82bb
000003e0: e654 5dba 6f0b ab3e 38f7 833e cadd 2b3f
000003f0: 942a 023e 679f 81bc b681 90be e873 4bbb
0.08289583 0.007407874 -0.48209468 -0.20028941 0.003828416 0.0012186319 0.013439278 0.0071300073
-0.48327744 0.003425975 0.023235802 0.19267496 -0.32432517 0.60071295 -0.42886916 -0.008122413
0.561013 -0.71046525 0.41182956 -0.71925956 0.29004228 0.822459 -0.51017106 0.13756394
0.05191196 0.0072545675 -0.040208418 -0.4083272 8.62862e-06 -0.019487368 0.52645653 0.2099036
-0.0059543476 -0.13997553 -0.5204343 -0.07923065 -0.012249885 0.12439634 0.14010155 0.48062378
-0.08758806 0.004488972 -0.1481604 -0.27186492 -0.29335275 0.03561986 -0.0044792085 0.0645835
0.08894926 -0.2166272 -0.09208436 -0.05313242 -0.37923285 0.0028174384 -0.0056317314 0.007951014
0.03611023 0.0055074026 0.44610623 -0.41628858 0.6538966 0.208416 -0.24657047 -0.0072494494
0.0152306035 0.0013845639 0.6195317 0.17678672 -0.003277049 0.005191871 -0.030524157 -0.0028618085
0.36162892 -0.08101236 -0.1946234 0.022352057 0.34027144 -0.44146535 0.34513298 -5.5850785e-05
-0.34084746 -0.08422248 -0.61858153 0.72930324 0.0460904 -0.6888084 0.46218145 0.079459175
-0.45143086 0.009967951 0.021356482 0.17322537 -0.088460736 -0.008431734 -0.26654965 -0.09428848
0.001995475 -0.103274964 0.031163609 0.22702385 0.002285215 -0.36783895 -0.090235166 -0.35553154
-0.07453187 -0.009634429 0.20231137 0.018865123 -0.01773618 -0.06377259 0.008077774 0.006460137
-0.028258014 -0.04135589 -0.30437666 -0.14289738 0.70924956 0.00663184 0.0032582616 0.0009456427
0.0112849455 -0.3497867 -0.34739116 0.072684675 -0.6188543 -0.09989757 0.51134586 -0.0063374033
-0.032453407 -0.0036657713 -0.03749362 -0.21985775 -0.002392062 0.0055347416 0.07936564 0.008170002
-0.27965546 -0.051132225 -0.33527806 0.055941094 -0.2433603 0.11097762 0.6207591 -0.0031030253
-0.11119338 -0.50577253 -0.07008806 0.8353558 -0.01447803 0.01471645 0.43897623 0.20510784
-0.11338021 0.005817552 -0.05083205 -0.44804528 -0.055914644 0.010062429 0.47696516 -0.025039004
0.004951934 -0.057909943 -0.71932566 0.1479417 0.0065648244 0.709721 0.25741965 -0.2978247
-0.014261261 -0.00088293507 0.54125017 -0.1917766 -0.42563877 0.13264243 0.006564317 0.040553354
-0.054906055 -0.42341036 0.06760908 0.023249947 0.17720836 0.006140591 0.0016229256 0.006213845
-0.005155199 -0.44335726 -0.13940428 0.39132437 -0.05577435 0.18875444 -0.12897703 0.009660277
0.012629966 -0.0040611993 0.117358126 -0.23087582 0.009069928 0.0032868253 0.0028125234 -0.004551958
0.5481558 -0.12217214 0.41550702 -0.07570136 -0.1640936 -0.09325938 0.1964445 0.0063931528
0.17265563 -0.29914895 0.24963468 0.5604969 -0.15391035 0.22428916 0.5098697 -0.6811544
-0.010666138 0.0043606805 0.053159926 0.4949085 0.39437452 0.14177887 -0.015271985 -0.41121522
-0.0015781327 0.034591146 -0.43137565 -0.053581174 -0.005802175 -0.08097032 -0.15191033 0.096945435
0.34728938 -0.0059166364 -0.0756621 0.61081564 -0.27265275 -0.044370532 0.006338475 -0.0730946
0.08417618 0.38025174 -0.38464293 -0.17923558 -0.22460902 -0.006549341 0.010890177 -0.003993014
-0.0008443132 0.3340716 0.2577455 0.671353 0.12711555 -0.01582308 -0.28223962 -0.0031044427

fullyconnected2_bias f4 [10]
00000000: d793 ffbe ba4a 2e3f 0298 06be 7766 11be
00000010: 18f9 4b3e 6dce b33e a24d 23bd b4ff 303f
00000020: ee2d 85bf ffac 8ebd
-0.4991748 0.68082774 -0.13143924 -0.14199243 0.1991924 0.35118428 -0.03986896 0.6914017
-1.0404642 -0.0696659
