test/sagemaker_tests/pytorch/inference/resources/mnist/model_eia/model.pth (torch, 142063 bytes, 8 tensors)

bias f4 [10]
000000 1a 0c ed 3c 53 5a 76 bd e4 c0 bd bd 3a 13 d5 3c
       0.028936435 -0.060144734 -0.092653066 0.026010145
000010 8a d6 4a 3e 7c df 7a 3c 7f 7a bd 3d 38 a5 44 3d
       0.19808403 0.015312072 0.0925188 0.048009127
000020 ae 3c bd bc 4c f3 9c bc
       -0.023100223 -0.019158982

weight f4 [10, 1, 5, 5]
000000 02 86 97 3d 75 e1 55 be 76 2f 88 be a1 2b 62 be
       0.07398607 -0.20886786 -0.2659871 -0.22086956
000010 36 09 b3 be 8e 91 1f 3e 04 db dd bb c2 29 4b bd
       -0.34967965 0.15582868 -0.0067704935 -0.04960037
000020 e5 3e ad bd 03 7f 03 be 68 e9 44 3e 30 77 95 3e
       -0.08459262 -0.1284142 0.19229662 0.29192495
000030 4e be ae 3e cd 1b 3f 3e 3d 67 aa 3d 1b c3 2c 3d
       0.34129566 0.18662949 0.083204724 0.042178255
000040 ec 10 75 3e 57 1c 7a 3e f5 7c c2 3e 30 c8 61 3e
       0.23932236 0.24424873 0.3798596 0.22049022
000050 c4 7f 56 be 73 41 85 be d8 65 81 be 5f ff 71 be
       -0.20947176 -0.26026496 -0.25273013 -0.23632573
000060 f5 b3 a8 bd 37 7a 20 3e e3 3e 8f 3e ed 30 c6 bc
       -0.08237449 0.15671621 0.27977666 -0.024193252
000070 f8 62 f1 be 3f e2 53 be d3 e4 80 3e ad 93 d8 3e
       -0.4714582 -0.20691775 0.2517458 0.42300168
000080 7f a0 23 3d f7 76 db be 0b 18 d9 be 11 b6 0c 3e
       0.039947983 -0.428642 -0.42401156 0.13741328
000090 18 5f ff 3e c5 f8 b4 bd 2b ab 33 be 04 1e a4 be
       0.49877238 -0.088365115 -0.17545764 -0.3205415
0000a0 71 02 97 3e 62 c0 07 3e b7 9a 2e 3e db da e5 bd
       0.2949405 0.13256982 0.17051207 -0.11223384
0000b0 90 75 74 be 1b f7 25 3e 80 1c e0 3d 99 f7 30 3e
       -0.23872972 0.16207545 0.10942936 0.17281951
0000c0 b5 3d e5 bc 20 8b 88 bd f6 13 cb be 67 cd 90 be
       -0.027983526 -0.06667161 -0.39663666 -0.2828171
0000d0 66 62 88 bb a3 e9 92 3c 0d 70 8d 3e ce 49 14 be
       -0.0041621206 0.017933672 0.2762455 -0.14481279
0000e0 d8 0a 01 be 1d 58 2f 3d 66 61 bd 3e 60 50 2d 3e
       -0.12601793 0.04280864 0.36988372 0.16925192
0000f0 c3 6e 73 be 23 7a 43 3e 0b a8 e6 3e ff b2 ef 3e
       -0.23772721 0.1908956 0.45050082 0.4681625
000100 6a 32 0e be b3 d5 17 3d ec 8d 33 3e 74 63 86 3e
       -0.13886419 0.037069034 0.17534608 0.26247752
000110 d9 f4 b9 bd 95 c5 93 be fc 79 06 3e d5 5e 5b bd
       -0.09079904 -0.2886168 0.13132471 -0.053557236
000120 b8 b1 8c bb 8f 00 41 be f5 fa 38 be 9e e9 64 3e
       -0.0042936467 -0.1884787 -0.18064483 0.22354743
000130 57 cf dc 3e 95 00 ca 3e af 19 6f 3d 66 59 67 3e
       0.43126938 0.3945357 0.058374103 0.22592697
000140 f0 f8 16 be cf e9 c1 3c 17 6e 4f 3e dc f8 31 3e
       -0.147434 0.023671059 0.2025684 0.17380089
000150 8a dc 91 3e 1b 52 4c be 7f 13 63 be 0f ec 8b 3d
       0.2848857 -0.19953196 -0.22175406 0.06832134
000160 56 18 ad bc b3 3c 1e 3e ef 79 ce 3c dc ab 98 be
       -0.021129768 0.15452842 0.025204627 -0.29818618
000170 b1 be 6a be b0 2f f3 bd c5 53 84 be 90 b7 45 bd
       -0.22924305 -0.1187433 -0.2584516 -0.048270762
000180 59 e2 9d bc ad e1 5d be d4 24 96 be 8b 12 59 be
       -0.01927297 -0.2166812 -0.29324973 -0.2119848
000190 f3 9e af 3e 78 08 83 3d 87 5e 18 3e 8d ee ad 3d
       0.34300956 0.063981 0.1487981 0.084927656
0001a0 a2 e5 2f be 5d 6a 29 be dc 19 8e 3e 22 db c6 3d
       -0.17177442 -0.1654448 0.27754104 0.09709765
0001b0 1f f5 a6 3d 7f cc a0 3a 1f 88 0f 3c 98 c7 af 3e
       0.08152222 0.0012267976 0.008760481 0.34331965
0001c0 6b c5 89 3e 4e 4a 27 be 12 e7 a3 3d e9 e6 f6 3d
       0.2690843 -0.16336939 0.080030575 0.12055761
0001d0 44 d2 92 3e 36 1d 65 3e 87 17 12 bc cd 9f 17 3d
       0.28676045 0.22374424 -0.008916742 0.037017632
0001e0 05 1b 0e be b1 bc 8a 3d 81 dc 99 3e 6d e2 06 3d
       -0.13877495 0.06774271 0.30051044 0.03293078
0001f0 42 68 89 3e f8 7f 32 be 00 af 99 be 83 81 21 be
       0.26837355 -0.17431629 -0.30016327 -0.15772061
000200 71 78 4d 3e 75 4a a5 3e 37 47 06 be 10 1f b5 3d
       0.20065476 0.3228337 -0.13113104 0.08843815
000210 23 e6 93 3e 88 d9 bd 3e c6 70 4d 3e b8 88 62 3e
       0.28886518 0.37080026 0.20062551 0.22122467
000220 c2 df 43 3e 76 69 49 3d fa 85 a5 bd 41 f0 6a be
       0.19128326 0.04917284 -0.080821946 -0.22943212
000230 14 bf 42 bb d7 c3 fc bc 96 f6 78 be 15 9b 6b 3d
       -0.0029715942 -0.030855102 -0.24312815 0.057520945
000240 3f 5c a6 3d 0d e8 7b bc 9d 8e cf 3b c4 f1 58 bc
       0.08123063 -0.015375149 0.0063341395 -0.013241235
000250 2e e4 1a 3e b7 dc 57 3e f6 dd ed bd 8c 28 c9 3d
       0.15126106 0.2108029 -0.11614601 0.09822187
000260 71 1a 6d bd 92 70 c4 3a db 29 6f be 8c 7c 58 be
       -0.057886545 0.0014987162 -0.2335581 -0.21141261
000270 ba f1 55 be f1 01 d5 bd f2 c0 38 3e a8 34 ce bd
       -0.20892993 -0.10400761 0.18042353 -0.10068637
000280 d9 2c 73 be 1e 8f f7 3c 31 a2 c2 3d 8a 10 06 3e
       -0.23747577 0.03021961 0.09503592 0.13092247
000290 0d 06 34 be 51 3f 33 bb 22 f8 6a bd 6e 2a a5 bc
       -0.17580433 -0.0027350972 -0.057365544 -0.020161834
0002a0 4e 87 35 be c8 3d a0 bd c1 98 31 bc 90 13 04 3e
       -0.17727396 -0.07824284 -0.010839642 0.12898088
0002b0 bf 7b c1 3d 42 df 2a 3e 1f c1 c2 3e d5 97 de 3d
       0.09447431 0.16686729 0.38037965 0.108688034
0002c0 39 59 1f 3e 9f 10 ef 3c a0 c3 88 be 13 0a f9 3d
       0.1556138 0.02918273 -0.2671175 0.12160125
0002d0 50 a0 71 be de 48 78 be bb c2 e6 be f3 db c5 be
       -0.2359631 -0.24246547 -0.45070443 -0.3864437
0002e0 9f e6 d2 be 3b 15 13 3e da 26 63 be 74 cb 88 be
       -0.41191575 0.14363568 -0.2218279 -0.26717722
0002f0 21 9b 3b be a2 44 66 be 4e 49 84 3e a3 33 5b 3e
       -0.18320896 -0.22487119 0.25837177 0.21406417
000300 f7 55 34 3e 45 a5 37 3e db bd aa 3e 73 1f 09 ba
       0.17610918 0.17934139 0.33347973 -0.00052308216
000310 b8 3a d2 3e 3e 50 ff 3e 1f 52 e6 3e 20 7e 79 3d
       0.41060424 0.49865907 0.44984528 0.060911298
000320 c6 f6 ba 3c c8 c4 f9 bd e6 e5 79 3e c8 20 08 3d
       0.022822749 -0.12195736 0.24404106 0.033234388
000330 6a 78 23 3e 5f 5f 8b bd 66 95 a9 bd c5 1c 1c 3c
       0.15963903 -0.068053 -0.082804486 0.009528344
000340 49 67 5e 3e c9 50 94 3e 22 b4 3d bd 1b 46 71 bd
       0.21719088 0.28967884 -0.046314366 -0.05890475
000350 79 e8 88 be a6 99 76 3e 8f 3c d1 3e db ee 6b 3d
       -0.26739863 0.2408205 0.40866515 0.057600837
000360 2a 00 e7 bb 2c 2b 91 be 5a 81 f0 bd cf 13 b1 3e
       -0.00704958 -0.2835325 -0.11743422 0.34585425
000370 f8 9d b5 be f7 c8 34 bd 85 51 bc be c2 92 ae be
       -0.35472083 -0.044136968 -0.36780944 -0.34096342
000380 67 14 94 3d 24 d8 bd bd b5 f9 12 3d 03 84 b4 3e
       0.07230454 -0.09269741 0.03588267 0.35256967
000390 2a d2 b8 3e 98 f8 b1 3e d8 de c6 bd 03 e2 41 be
       0.36097842 0.34759974 -0.09710473 -0.18933873
0003a0 45 13 9f 3e 30 7d 2a 3e 1a 37 25 3e c9 8f ce bd
       0.3106939 0.16649318 0.16134301 -0.100860186
0003b0 b7 f2 73 be a7 90 e2 3d 48 b8 6b 3e b2 1e 07 3d
       -0.23823057 0.110627465 0.23019516 0.032988258
0003c0 3a 8c ac be 6b 3a 3b be 78 a9 a7 bd 0f 91 e4 bc
       -0.33700734 -0.18284003 -0.081866205 -0.0279012
0003d0 c1 85 84 bd 94 4f 39 be 16 50 d6 be 52 18 c3 be
       -0.06470824 -0.18096763 -0.41857976 -0.38104492
0003e0 70 10 7d be f1 a5 c5 3c
       -0.24713302 0.024126979

bias f4 [20]
000000 2a cf c1 3c 6b 41 ca bc d2 9e 3b 3d 32 d9 05 bd
       0.023658354 -0.024689397 0.04580576 -0.032677837
000010 78 34 d6 bc 58 13 9f bc 79 d7 2d bd 7f c1 45 bc
       -0.026148066 -0.019418404 -0.04244182 -0.012070059
000020 7b 14 83 bd 81 7e a9 bc e5 bd 6d 3d 16 a4 53 bd
       -0.06400391 -0.020690205 0.058042426 -0.051670156
000030 75 6c 90 bd 1f 3e 60 3d c0 8c c5 bc bc d3 b1 bd
       -0.070519365 0.054746743 -0.024114966 -0.08682963
000040 df 5b 2d bc a6 44 98 bd ad 82 44 bd de 1f d7 3c
       -0.010580986 -0.07434969 -0.047976185 0.026260313

weight f4 [20, 10, 5, 5]
000000 e5 fc 8d 3d 59 dd 10 3d 02 b8 00 be 1f 63 28 bc
       0.069330014 0.035367344 -0.12570193 -0.010277539
000010 65 43 87 3d 41 19 ef bc 4f 2c a8 3c 31 1e 0c be
       0.06604651 -0.029186847 0.02052894 -0.13683392
000020 0d ea 58 3a 03 93 f5 b9 d8 fc 0e bc 67 1b fa bc
       0.00082746224 -0.00046839574 -0.008727275 -0.030530645
000030 b6 db 9e bd 9d 94 a5 3c ee 66 a5 3c a0 bf e6 bd
       -0.0775675 0.020212466 0.020190682 -0.11267018
000040 94 d0 98 bd 7f 9c 9a 3c a0 fb 08 3c c6 71 8f 3d
       -0.07461658 0.018873451 0.008360773 0.070041224
000050 6b 6f c3 bd fc 63 a3 bc 9b c8 b4 3d 9b d5 6c 3d
       -0.09542736 -0.019945137 0.08827325 0.057820898
000060 60 b0 22 bd b2 21 55 bc ae 95 0e be 7c c0 fb bd
       -0.039718986 -0.013008522 -0.13924286 -0.12292573
000070 17 63 0a bd 6c 72 24 3c 6d 3a 78 bd 5d c5 37 be
       -0.033785906 0.010037046 -0.060602594 -0.17946382
000080 96 21 9c bd f8 05 74 bb 27 c1 02 bd 93 62 fa bd
       -0.076235935 -0.0037235003 -0.031922486 -0.12225833
000090 ba cc c3 bd f2 4c 37 3d 47 36 91 3c 29 92 ea 3c
       -0.09560533 0.044751115 0.017726077 0.028634148
0000a0 ea fe a7 bd 47 73 91 3c ac b4 10 3e 76 d8 65 3d
       -0.08202918 0.017755164 0.14131421 0.056114636
0000b0 8b 85 a5 3d 9e 9d d3 bc 66 7b 9f 3d ad bc 00 3e
       0.08082112 -0.025831994 0.07787208 0.12571974
0000c0 1d 40 29 bb 7f 81 bc 3c 84 27 84 3d da 21 be bc
       -0.0025825568 0.023010967 0.064528495 -0.023209501
0000d0 f9 36 c9 bc 45 df 3e bd ba 24 83 3d 44 10 5d bd
       -0.024562346 -0.046599645 0.064034894 -0.05397059
0000e0 3f 8c b8 3b c9 c0 b0 3d f7 30 07 3e 5b 1e 9c 3d
       0.005631953 0.08630521 0.13202272 0.07622977
0000f0 b7 a5 f6 bc 69 5f 70 3d 06 9d 12 3d c2 23 6b 3c
       -0.030108316 0.05868474 0.03579428 0.014351787
000100 89 60 46 3d 85 5f 6a bd c4 88 b2 bc d5 a8 3b bd
       0.048431907 -0.05722 -0.02179373 -0.045815308
000110 82 03 a5 bd c1 76 fa bd 36 38 3b 3d 54 e7 56 bd
       -0.0805731 -0.12229682 0.045707904 -0.052466705
000120 85 91 cc bd 8d 5e b6 bd 87 2a b9 bd c9 4d 57 3d
       -0.09988693 -0.08904753 -0.090413146 0.052564416
000130 ea d0 bc bc f5 46 4b bd 62 14 4e bb 11 c8 15 bc
       -0.023048837 -0.049628217 -0.0031445255 -0.009141938
000140 d8 4b 4c 3c 18 4e 38 bd 1c a6 ab bd b1 77 ca bc
       0.012469254 -0.04499635 -0.08381292 -0.024715276
000150 a4 76 cb bc 58 53 2d bc a9 c8 cc bc a4 93 92 bd
       -0.024836846 -0.010578953 -0.024998026 -0.071570665
000160 4f 8d 1a be 74 a5 da bd 57 7f 81 3d 0c a9 1c 3c
       -0.15092967 -0.10676089 0.06323116 0.009561788
000170 5d e8 89 bd 17 c5 81 bd e4 1f 15 3d 71 27 94 bc
       -0.06733773 -0.0633642 0.036407366 -0.018085213
000180 cb 38 86 3d 84 67 99 3d 3e 13 9b 3d 3d 5e f7 3c
       0.06553801 0.07490447 0.075720295 0.030196304
000190 54 64 72 3d d6 b9 7d bd 0c f9 89 3b b6 7f eb 3c
       0.05917771 -0.061944805 0.004210597 0.02874742
0001a0 46 35 ff 3d 8b d1 7e bc 8b 86 1b be 5e bc 62 bd
       0.12461333 -0.015552889 -0.15188043 -0.055355422
0001b0 52 59 aa 3d cf f1 3f 3d e6 d8 47 be f7 60 68 3b
       0.08317818 0.046861466 -0.19516334 0.0035458186
0001c0 69 68 37 3d 04 e3 88 3c 7b 82 de 3c 88 8b 2e be
       0.044777308 0.016709812 0.027161827 -0.17045414
0001d0 34 2a 7f bc 31 7c 13 3e 4a 93 83 3d f3 e7 88 bb
       -0.015574027 0.14402844 0.064245775 -0.004178041
0001e0 d9 55 ca bc 93 7e 24 bd b7 2e 41 bc 14 dd b7 bd
       -0.024699138 -0.040159773 -0.011790923 -0.08977714
0001f0 1e d5 01 be 3e 4a f6 3c 89 2b 16 3d f8 9a 7a 3d
       -0.12678954 0.030064698 0.036662612 0.061182946
000200 0a bd 67 ba f3 9f 23 bd 90 0b cf bc 34 53 ff 3c
       -0.00088401197 -0.03994746 -0.025274068 0.031167604
000210 65 e9 8a 3d aa 9b bb 3d 8b 0b 01 3e 33 06 ae bc
       0.06782798 0.0916055 0.1260206 -0.02124319
000220 15 38 ef 3d 43 82 e9 3d d1 e9 00 3e 62 a0 18 3d
       0.11680619 0.114017986 0.12589194 0.037262328
000230 8d 3e 8b bd 81 7f 7f 3d d5 d7 96 3c e9 ce d4 3b
       -0.0679904 0.062377457 0.018413464 0.006494392
000240 06 56 a7 bd 8e 13 80 bd e6 e7 5e bd 06 e6 e5 bd
       -0.081707045 -0.0625373 -0.054420374 -0.11225514
000250 5d 10 18 3c 39 0d 95 bd e1 49 0b bb 28 ce 66 bc
       0.009281245 -0.07277913 -0.0021253752 -0.014087237
000260 ca 08 c6 3c b5 44 14 bc 20 31 4f 3d fb 18 d3 3c
       0.024174113 -0.009049584 0.05058396 0.025768748
000270 db ae a1 bd 13 b1 b9 3d eb 46 82 3c 71 35 a7 bc
       -0.07894679 0.09066977 0.015902957 -0.020411225
000280 f0 9f 83 bd f9 24 91 3d ab 6e 4e 3d 99 ee 86 3d
       -0.0642699 0.0708713 0.05039851 0.06588478
000290 57 01 e4 bc ba 83 81 3c ea 2c 9b bc d0 6c 85 bc
       -0.02783267 0.015809882 -0.018942315 -0.016287237
0002a0 48 53 1a 3b 27 55 98 bd 1e 84 1c 3d b2 ea 17 bc
       0.0023548175 -0.074381165 0.038211934 -0.009272264
0002b0 a3 14 6a 3c dc 0d b0 3c d6 82 17 bd 26 63 5f bd
       0.014287147 0.021490984 -0.03699001 -0.054537915
0002c0 30 c8 2f 3d f1 ce ed bd e2 6e 60 bd 63 d7 8e 3d
       0.042915523 -0.116117366 -0.054793246 0.069746755
0002d0 9b 65 c5 bc d8 70 e4 3d c2 fb db bd d5 0f 4f bd
       -0.0240963 0.11154336 -0.10741378 -0.050552208
0002e0 bd 8c 3b bc aa 3d 24 bd 8a db 81 bd 9a d7 24 bd
       -0.011447129 -0.04009787 -0.06340702 -0.040244676
0002f0 45 9e 06 be ad 04 37 bd 79 92 31 bd a8 cb 96 bd
       -0.13146313 -0.044682194 -0.043352578 -0.07363063
000300 11 f3 9f bc 66 25 99 3b 6a c3 b4 3d 47 90 07 3e
       -0.019525083 0.0046736477 0.08826335 0.13238631
000310 c4 78 0e bc 9e ef d5 bb 72 1c 7a 3d 21 56 b5 bc
       -0.008695785 -0.0065288087 0.061062284 -0.022135796
000320 74 7d 07 bc 00 fb 46 bd 89 b6 94 3c 60 ec ce bc
       -0.008269656 -0.048579216 0.018153446 -0.025259197
000330 f6 7a d9 bb 20 3d 7b bc e1 45 68 bd 20 51 5e bd
       -0.0066369725 -0.015334398 -0.056707267 -0.054276586
000340 28 66 21 bd 25 6e 30 bb 14 79 cf 3b 80 52 ad bc
       -0.039404064 -0.002692112 0.0063315723 -0.021157503
000350 31 e0 be 3d ea 3f 9f 3d 70 b1 55 3d ed 3b 90 3d
       0.09320105 0.077758625 0.05217117 0.0704268
000360 14 f4 5d bd e0 c8 7f 3d a0 91 a0 3d b6 11 02 bd
       -0.05418785 0.06244743 0.07840276 -0.03175517
000370 92 9b 41 bd 16 b9 9f bd 00 08 62 3c 8e 1e b2 bb
       -0.047267504 -0.07798974 0.013795853 -0.0054357713
000380 c5 b3 dc bb 2a fc a6 3d f9 26 21 bd 17 49 3f 3d
       -0.0067352974 0.08153565 -0.039343808 0.046700563
000390 d3 bc 1d bd 71 76 0c bd 9c fd 5a 3d 48 d6 a2 bd
       -0.038510155 -0.034292642 0.053464517 -0.07951027
0003a0 51 fd bc bb 6a 2f 20 be 7f 58 3f bc 6e 71 ee 3c
       -0.0057675024 -0.15643087 -0.011678814 0.029106822
0003b0 e3 50 6c 3d 80 42 0f bd f0 28 8b bd 92 d5 be bc
       0.057694327 -0.03497553 -0.067949176 -0.023295198
0003c0 37 ef 08 bc f9 6a 7b ba ce 6e 1e bd 52 ff 53 3d
       -0.0083578145 -0.00095908303 -0.03867989 0.051757164
0003d0 cc ee bb 3c 8d fb 03 be 8f 91 8a bd 13 fd 55 3c
       0.022941016 -0.12888928 -0.06766044 0.013060826
0003e0 cd d1 19 3e 8d f7 87 bb 36 77 66 bd b2 10 55 bc
       0.15021439 -0.0041493834 -0.056266032 -0.013004469
0003f0 5c 6c b9 bd 88 73 c5 3c 47 d2 74 3d 0d f0 5f bb
       -0.09053871 0.024102941 0.05977085 -0.003417018

bias f4 [50]
000000 b8 da 86 3d 8c 4f 80 3d a6 00 a6 3c 61 0d fe 3a
       0.06584686 0.06265172 0.020263981 0.0019382649
000010 e3 0f e5 3c 17 32 4c 3c 8a 8d d8 3b 89 d8 21 bc
       0.027961677 0.012463114 0.0066086696 -0.009878286
000020 e9 52 6b 3d be dc c9 3c f5 a1 ec 3c 89 ae a6 3d
       0.057452116 0.02464139 0.02888582 0.08138759
000030 fe 3e f5 bb 10 89 b3 3c d0 1f 82 3c ce 30 d9 bc
       -0.007484316 0.021915942 0.01588431 -0.02651253
000040 20 9a a8 3d bd 4d 59 3d 7e 0e b0 3d 38 cb fe bb
       0.08232522 0.053052653 0.08596514 -0.0077756904
000050 c7 ec 28 3d 25 8b 4f 3d b2 8b 97 bc f4 62 58 3d
       0.041241433 0.050669808 -0.01849923 0.052828744
000060 3a 15 37 3d 12 01 87 bb bf b7 b1 3d 04 8e 51 bc
       0.044697978 -0.0041200006 0.08677625 -0.012790207
000070 37 37 4c bc fc 56 20 bc 1d e5 ab bb 76 d0 47 3d
       -0.012464336 -0.009786364 -0.0052458183 0.04878279
000080 62 88 05 3d 2d 7f 83 bc 32 20 c4 bc 90 20 cd 3d
       0.032600768 -0.016051853 -0.023941133 0.100159764
000090 1f bf 17 3d da 84 59 bd a2 dd 34 3d d3 3f c2 bc
       0.0370475 -0.053105213 0.044156678 -0.023712074
0000a0 36 44 3e 3d 36 59 b1 3d c6 23 59 3d 44 5e ee bc
       0.04645177 0.08659594 0.05301263 -0.029097684
0000b0 f7 99 1e 3c cd 2f 39 3d a5 ac c1 bc 27 b6 d9 bc
       0.009680263 0.045211602 -0.023641894 -0.026576115
0000c0 37 72 84 3d f3 b8 78 3d
       0.06467097 0.060723256

weight f4 [50, 320]
000000 b3 93 a6 bd 0f 59 ed b8 d8 54 a6 bb 83 e1 9d bd
       -0.0813364 -0.00011317629 -0.005076032 -0.077090286
000010 e0 c0 53 3d 88 6d 19 bc ed ae 48 3c 0e e9 60 bd
       0.05169761 -0.009364493 0.012248737 -0.05490976
000020 15 1f 03 bd b4 2a 2b 3d 96 b5 3d 3d 17 f9 5f 3d
       -0.032012064 0.04178877 0.046315752 0.05468091
000030 a4 68 fc bc 2c 1c 4f bd 2d 40 13 3d 29 63 82 3d
       -0.030811615 -0.050563976 0.035949875 0.063665695
000040 39 36 df bd 0f 8e 26 bc 60 81 54 bd f8 19 70 3c
       -0.10899014 -0.010165705 -0.051881194 0.014654629
000050 d6 91 a4 bc c1 a7 ab 3c eb ec c4 3c b5 03 93 bd
       -0.020089071 0.020954015 0.024038753 -0.071784414
000060 15 97 ba bc d8 65 1d bc 78 1c ba 3c a1 c6 17 bd
       -0.02277712 -0.009606801 0.022718653 -0.03705466
000070 4e db c9 bc 3c 9c 99 b9 34 0b 16 3d 5c ba 17 3c
       -0.024640705 -0.00029298838 0.036631778 0.00926074
000080 88 e7 ab bd c3 05 e1 bc ad 8b 68 bc 4f 1d 14 bd
       -0.083937705 -0.027468568 -0.014193458 -0.036160763
000090 3a 03 3f bd a4 42 95 ba 09 99 28 3d ed 73 b8 3d
       -0.046633936 -0.0011387658 0.04116157 0.09006486
0000a0 8c ee 2f bc d9 ba dd 3c ca f1 05 bd c4 f6 1b bd
       -0.010738026 0.027066635 -0.03270129 -0.03807713
0000b0 c6 74 48 3c d9 49 16 bd 55 fc 20 3c d5 9c 79 bd
       0.012234872 -0.03669152 0.009825786 -0.060940582
0000c0 4d 96 c8 bb 89 e4 b1 bc 9f 89 0a 3c c1 46 89 3d
       -0.006121433 -0.02171542 0.008455663 0.06702948
0000d0 4f 49 f9 bc ea c5 c3 bc 09 63 d3 bc 11 f5 94 3d
       -0.030430464 -0.023898084 -0.02580406 0.07273305
0000e0 37 ac d0 bc 94 5e ab bd 1e 8d 61 bd 97 76 a9 bd
       -0.025472743 -0.08367649 -0.05506622 -0.08274572
0000f0 86 e6 e3 bc 31 21 06 bd 02 19 81 bc 20 e9 ff bd
       -0.027819883 -0.032746498 -0.015758995 -0.12495637
000100 96 97 36 bd 9b 2c f7 bc c9 e7 8b bc 73 31 50 bd
       -0.044578157 -0.030172637 -0.017078297 -0.05082841
000110 4f 54 c5 3c 39 d5 6d bc f2 a1 6c bd a9 82 8b bd
       0.024088053 -0.014516168 -0.05777163 -0.06812031
000120 5e 11 10 3d 4e 97 c9 bc 77 70 55 3c 0d b8 8a 3d
       0.035172813 -0.02460828 0.013027302 0.06773386
000130 dc 8b 2c bc 8b ff 14 3d 90 ba 17 3c 46 fc 19 3d
       -0.010531392 0.036376517 0.009260789 0.037594102
000140 9b 8e f0 3b 80 27 92 3d 2b 39 81 bc 56 26 ea bd
       0.0073412186 0.0713644 -0.01577433 -0.11433093
000150 60 80 ad bc 57 ea 26 bd 5e 79 b6 bd 91 4d 92 bd
       -0.021179378 -0.040750828 -0.08909868 -0.07143701
000160 2f d6 a1 bc 94 a2 e8 bc 72 ee 53 3c a6 4e 99 3c
       -0.019755451 -0.028397836 0.012935268 0.01871426
000170 1c 20 53 bb 19 37 b5 3d 47 21 b0 3d e7 8a 5c 3c
       -0.0032215184 0.088484 0.08600097 0.013460851
000180 43 54 83 3b 68 32 d2 bb 41 4c 38 bd ef ca 21 bd
       0.0040078475 -0.0064147003 -0.044994596 -0.039500173
000190 f4 51 92 3c 0d 36 d0 bc 55 e3 3d bd 0c f4 7e 3d
       0.017861344 -0.025416398 -0.04635938 0.06224446
0001a0 0a 82 c1 bb 61 3e 99 bd 15 2a 83 3d 21 84 a5 3d
       -0.0059053944 -0.07482601 0.06404511 0.08081842
0001b0 1c 86 73 3d 0c 53 24 3d 37 cf 81 3d 81 f3 51 3d
       0.05945407 0.040118262 0.06338351 0.051257614
0001c0 32 d7 11 bb 26 2a cf bb d8 a5 cc 3d 0b 59 fd 3b
       -0.002225351 -0.006322163 0.0999257 0.007731562
0001d0 07 ba 90 bb c6 95 2d 3c e2 03 8a ba 17 40 33 bc
       -0.0044167074 0.010594791 -0.0010529722 -0.010940573
0001e0 80 64 27 3d 2d d7 d7 ba 19 c8 a7 bd 72 61 d5 bc
       0.04086733 -0.0016467326 -0.081924625 -0.026047442
0001f0 05 31 e6 3c 85 5c 76 bd d0 26 9f bc c3 b4 3a 3c
       0.028099546 -0.060146827 -0.019427687 0.011395636
000200 b7 6a 96 bd ef 5b 07 bd 1b d6 03 3d 62 99 aa bb
       -0.07344573 -0.03304666 0.03218661 -0.005206273
000210 7c 8c e9 bc f1 23 35 3d f1 ca a6 3d f1 fa 07 3d
       -0.028509371 0.04422373 0.08144177 0.0331983
000220 98 c9 1f 3c 1c fe 90 39 d9 16 7d bd 95 02 88 bd
       0.009752654 0.00027655147 -0.061789367 -0.066411175
000230 20 05 7e bc c7 36 52 3d 2e fd e1 bc b4 49 cd bd
       -0.015504152 0.05132177 -0.027586546 -0.100238234
000240 0d 75 54 bd ce a3 c5 bd 42 be 94 bd f6 88 6d bd
       -0.05186944 -0.09650384 -0.07262851 -0.057991944
000250 0c 75 c6 3d 6a f8 46 3c 4a 62 96 bc 28 f2 2a bd
       0.09690294 0.012144187 -0.018357415 -0.041734844
000260 5e d2 24 3d e1 a9 94 3a 66 2f 79 bc 26 96 2c 3d
       0.040239684 0.0011342132 -0.015209055 0.04213538
000270 ce ca 18 3d 74 f6 ba 3d 3b 3c 20 3d 2e 81 86 3d
       0.037302785 0.091290385 0.03911994 0.06567608
000280 84 02 11 3c 9e fc 33 bd 9c 26 9a bd 0a 98 d4 39
       0.008850697 -0.043942086 -0.075268954 0.0004054907
000290 74 5f bb bb d1 88 71 bd 66 6e 6c 3d be f7 90 3d
       -0.005718166 -0.05896837 0.05772247 0.07078503
0002a0 09 37 a8 bd 80 75 00 bd b6 3d 14 3d 84 13 78 3d
       -0.08213622 -0.031362057 0.036191665 0.060565487
0002b0 b9 5c 66 3a a4 d8 fe 3c 79 63 6e 3d 8e 11 88 bd
       0.00087876205 0.031109162 0.058200333 -0.06643973
0002c0 78 78 27 bd 9c 94 21 be 0c 83 14 be 60 ea bb bd
       -0.040886372 -0.15779346 -0.14503115 -0.09175563
0002d0 03 c8 f9 3b 7e f6 4a 3d 62 64 af 3c ee ff b9 bd
       0.00762272 0.04955148 0.021410171 -0.09082018
0002e0 fb 01 4c 3d 7e 5d 2f bc b4 d1 a2 39 e6 c6 36 bc
       0.049806576 -0.010703443 0.0003105529 -0.0111558195
0002f0 ed c2 18 bb 09 d3 97 3c 29 63 10 3d 5d 0e 94 3d
       -0.0023309544 0.018533247 0.035250816 0.07229302
000300 13 7e 38 bd dc b5 39 3c 64 8d df b9 91 87 eb 3c
       -0.04504211 0.011334863 -0.0004263922 0.028751167
000310 55 4e a3 bc aa e5 16 bb dd ae 89 3c 35 6a a7 3c
       -0.019934813 -0.0023025074 0.016807014 0.020436386
000320 d1 8f 88 39 55 0c ba bd df 16 ba bb 18 6f bf 3c
       0.00026047093 -0.090843834 -0.005678996 0.023368403
000330 28 6f 1f 3b 46 fe 50 3a 59 a5 c4 3c a2 0d f3 bc
       0.002432773 0.000797246 0.024004625 -0.029669587
000340 0d 4a 81 bb 9e 3a bd 3d 9b 0c 43 3d ec aa 02 bc
       -0.003945595 0.09239696 0.047619443 -0.007975321
000350 a3 17 ca bb 37 8c bc bc 6f 3f 78 bc 3c f1 05 bd
       -0.0061673685 -0.023016078 -0.0151518425 -0.032700762
000360 16 19 14 be 99 c3 cf 3c e1 bb dd bb d7 5b ea bd
       -0.14462695 0.025361823 -0.0067667817 -0.11443298
000370 6b 3e 0b be 52 26 82 3d e5 66 7b 3c f1 20 08 be
       -0.1359803 0.06354965 0.015344356 -0.13293816
000380 02 d3 dd 3c 9d fc 33 bd df f8 ff bd 71 8a 00 be
       0.027078155 -0.043942083 -0.1249864 -0.12552811
000390 56 32 06 3d cc 5e 3e bd f0 24 05 bd c2 61 00 3d
       0.032762848 -0.046477124 -0.03250593 0.03134323
0003a0 f0 da a4 bc 40 30 a5 3d 12 01 91 3d fa da 2e 3d
       -0.020123929 0.080658436 0.07080282 0.0426893
0003b0 4c 04 2d 3d 3d 00 5c 3d 77 e7 05 3c fa 7f 36 3c
       0.042240426 0.053711165 0.008172861 0.01113891
0003c0 9d 05 d9 bc cd 78 a7 3c 36 8c b3 bd 65 e3 cd bd
       -0.026491934 0.020443344 -0.087669775 -0.10053138
0003d0 99 e9 b2 bc 4e e7 df bc 7b 68 7f 3d e5 f2 59 3d
       -0.021839904 -0.027331974 0.0623555 0.053210158
0003e0 c5 88 6f 3d b4 7f f3 3b 41 8e 6a 3d f0 89 04 3d
       0.058480043 0.007430995 0.05726457 0.03235811
0003f0 0b bc 40 3d 32 da aa bd 2d 13 06 bd 81 07 29 bd
       0.04705433 -0.08342399 -0.03273313 -0.041266922

bias f4 [10]
000000 38 25 8d 3d a9 3b 02 3e d6 e9 95 bd 0a ba dc bd
       0.068918645 0.12718071 -0.07319991 -0.10777672
000010 02 d2 19 bd 3b 52 eb 3d ef 73 88 be aa 75 19 be
       -0.037553795 0.114902936 -0.2665095 -0.14986292
000020 56 55 2d 3e fe 39 13 be
       0.16927084 -0.14377591

weight f4 [10, 50]
000000 ee ae 86 3e 65 eb fc bd 06 f0 6d 3e db bf 32 3e
       0.26305336 -0.123495854 0.23236093 0.17456
000010 f1 6e 15 be e2 7e 98 bd c0 0e 64 be 50 4a 3d be
       -0.14593102 -0.07446076 -0.22271252 -0.18485379
000020 65 9a 35 be a4 3c 54 be 38 92 60 be d4 99 23 be
       -0.17734678 -0.20726258 -0.21930778 -0.1597665
000030 29 c1 ff bd 78 b2 62 3e 72 0f 88 3e 49 8c 2d 3e
       -0.12488014 0.22138393 0.26574284 0.16948046
000040 66 a2 5b bd 0a a7 8e 3e 80 83 e5 3d 5d 47 3e be
       -0.053621672 0.27861816 0.11206722 -0.1858191
000050 a0 e8 0f be d1 78 25 be 75 64 c7 bd a4 93 80 be
       -0.14053583 -0.16159369 -0.097359575 -0.2511264
000060 e7 a1 07 be ec 62 7a be a8 8d 82 be 47 0d 97 be
       -0.13245355 -0.24451798 -0.254987 -0.29502317
000070 98 7a 9a 3d a8 43 4a 3e 47 02 41 be 83 85 0c be
       0.07542914 0.19752371 -0.18848525 -0.13722806
000080 b2 a5 6e 3e b4 f3 35 3e cc 51 1e be 59 69 70 3e
       0.23305395 0.17768747 -0.1546089 0.23477687
000090 b5 e0 95 3d 84 07 5b bc 8d 1a bd 3d 71 9a 22 be
       0.0731825 -0.013368491 0.0923358 -0.15879227
0000a0 24 d7 20 be 08 33 15 be 65 df 2a 3e 68 a7 16 be
       -0.1570707 -0.14570248 0.16686781 -0.14712298
0000b0 3a 28 91 bd 95 2e 83 3e 68 ca e3 bd 20 13 a0 bd
       -0.07087751 0.25621477 -0.1112259 -0.07816148
0000c0 f8 68 28 3e 5a 15 a3 bd 72 f7 b5 bd 91 13 5d 3e
       0.16446292 -0.07963057 -0.08885087 0.21589495
0000d0 3e bd 41 be ce 9e cf 3d ba 5a e1 39 76 71 4a 3e
       -0.18919846 0.101377115 0.0004298294 0.19769844
0000e0 cd 48 8c be 06 22 2c 3e b9 9b 75 bd ff 54 50 be
       -0.27399293 0.16809854 -0.05996296 -0.20344923
0000f0 7b 59 3f 3e e7 a6 87 3e 08 2c 08 be 31 4a 18 be
       0.18686478 0.26494524 -0.13298047 -0.14872052
000100 03 e9 c2 bc 19 bc 73 be 42 61 35 3e 42 49 a8 bd
       -0.02379275 -0.23802222 0.17712882 -0.08217098
000110 52 86 7d be ef 64 7a bd e4 c2 58 be 81 b9 cc 3c
       -0.2475827 -0.061131414 -0.21168095 0.024990799
000120 58 2b 48 3e 5a ba 21 3e 7d d9 37 3e 5f 73 90 be
       0.19547784 0.15793744 0.17954059 -0.2821302
000130 65 05 99 be 22 af 20 3e ed 7b 54 3e b4 69 ac bc
       -0.29886928 0.15691808 0.20750399 -0.021046497
000140 10 19 4c 3e ca 26 1f be 69 f9 22 be 73 7a 69 be
       0.19931436 -0.1554214 -0.15915455 -0.22800617
000150 84 78 74 3e 4a df c5 3b 79 c9 ba bd 44 e9 28 be
       0.23874098 0.006038581 -0.09120459 -0.16495234
000160 21 f9 a6 3d aa a3 89 3e 54 09 03 bd 8f 8b 00 3d
       0.08152986 0.26882678 -0.031991318 0.031383093
000170 5f d4 38 be 1d a4 64 be 16 e7 3f 3e 3f 80 0e be
       -0.18049763 -0.22328229 0.18740496 -0.1391611
000180 4a 66 51 be 43 60 5f 3e 58 01 a0 be e2 d9 41 3e
       -0.20449176 0.21814065 -0.31251025 0.18930772
000190 a6 14 a3 bd 59 7a d6 bd a4 1c 2e bd 8a 3b f6 3c
       -0.07962923 -0.10472555 -0.042507783 0.030057687
0001a0 fc 07 5a bd 12 50 30 3e 7a 62 2b 3e db 88 27 3e
       -0.05323027 0.17218044 0.16736785 0.163608
0001b0 f0 92 4e 3e 00 5b bb 3d 7d b0 b9 bd 45 1d 8b 3e
       0.2017324 0.09148216 -0.090668656 0.27170768
0001c0 9f 85 3d 3e d7 13 53 3e dc ff 5f 3e 56 5e 07 3e
       0.18508004 0.20613037 0.21874946 0.1321958
0001d0 e3 b5 0b 3d 2e 55 f9 bd 99 f5 2c be 55 59 36 be
       0.034109008 -0.1217445 -0.16890563 -0.17807515
0001e0 54 b0 0c be e6 12 59 3e c6 0f e0 bd 59 50 45 be
       -0.13739139 0.21198615 -0.109405085 -0.19268931
0001f0 6e a7 fa bd 1a 8d 9f bd 95 8f 3d be bd 39 84 bd
       -0.12238966 -0.07790585 -0.18511803 -0.06456325
000200 c7 ec 7b be f2 51 19 bd 4f 96 f5 bd 91 6f 03 be
       -0.24602042 -0.037431665 -0.1199156 -0.12835528
000210 29 34 07 3e 5d 66 14 be bb 29 4f 3e fa f9 69 3e
       0.13203491 -0.14492173 0.20230763 0.22849265
000220 cc 07 ce bd 13 e9 d0 bd ca f7 09 3e fc f3 87 3c
       -0.10060081 -0.102007054 0.1347343 0.016595833
000230 09 c1 79 3e c1 1f 66 3e b9 96 46 be 7e 67 18 bd
       0.24390043 0.2247305 -0.19393434 -0.037208073
000240 cd 69 8a bd 0c 85 74 3e 87 04 19 bd 80 a1 45 3e
       -0.06758461 0.23878878 -0.037357833 0.19299889
000250 a8 7a 0d be 0f d1 58 3e 4e fc be bd 50 d0 74 3e
       -0.13816321 0.211735 -0.09325467 0.2390759
000260 a4 bf 3e 3e f2 cd 21 be 75 9f d2 bc 83 04 4c be
       0.18627793 -0.15801218 -0.0257108 -0.19923596
000270 5b a6 24 3e cf 02 49 bd 2c 58 08 3e 7a bd f9 3d
       0.16079085 -0.049074944 0.13314885 0.12194343
000280 2c d4 9e bd aa 81 7f 3e 84 1a f9 bd d0 61 ab bd
       -0.07755312 0.24951807 -0.121632606 -0.08368266
000290 3f 61 2d 3e a7 1b 01 be a0 8d 47 be a1 93 1f 3b
       0.16931628 -0.12608205 -0.1948762 0.0024349468
0002a0 d7 26 d9 bd 2f 73 76 3e 24 57 73 3e c2 e0 55 3e
       -0.10603111 0.24067377 0.2376371 0.2088652
0002b0 e8 87 bc 3d 2f a0 a3 bd 12 ef 2e be 14 48 15 be
       0.092056096 -0.07989537 -0.17083386 -0.14578277
0002c0 b0 23 07 3e c4 b6 0f be 69 86 43 3e d9 49 0e be
       0.13197207 -0.14034563 0.19094242 -0.13895358
0002d0 ca 1d 84 be 16 20 81 3e 97 2b 31 be 8e d0 3a 3e
       -0.25803977 0.25219792 -0.17301784 0.1824362
0002e0 d1 3e 85 3d f0 c4 1c bc 12 e6 88 3e 47 b2 8c bb
       0.06506122 -0.009568438 0.2673803 -0.0042937133
0002f0 43 3a 56 be 4c 35 72 bd ee e5 53 3e e3 dd 46 3e
       -0.20920663 -0.05913286 0.2069318 0.1942058
000300 7b 35 29 be 60 b0 2f 3e 75 25 4e 3e a6 60 85 bd
       -0.16524307 0.17157125 0.20131476 -0.06512575
000310 b1 55 c1 bd 32 f4 13 bb 9d 37 83 bd 3b 68 69 3e
       -0.094401725 -0.0022575972 -0.06407092 0.22793667
000320 9a c3 c9 bd e7 9a 89 bc 13 64 11 be 86 e0 13 3d
       -0.09851761 -0.016797496 -0.14198332 0.036102794
000330 5f c2 85 3d 4a 6e 57 3e 9f b6 4f 3e 19 50 44 be
       0.06531214 0.21038166 0.20284508 -0.1917118
000340 b5 6d 53 be 3c 62 74 be 3f 4e 72 3e cd cc 43 bd
       -0.20647319 -0.23865598 0.23662661 -0.047802735
000350 ac 87 9f 3e 3b e1 46 be 47 9e 36 be d0 ed 33 3e
       0.31158197 -0.19421856 -0.17833816 0.17571187
000360 d4 8f 4f bd 6c e0 4d be a5 e0 c7 bd 20 ee 1d be
       -0.050674275 -0.20105141 -0.097596444 -0.15422869
000370 b6 47 94 bd cb 0e 3a be 90 7d 69 3e 75 02 61 3e
       -0.0724024 -0.18169706 0.22801805 0.21973594
000380 ac e3 48 3e 81 d7 5c 3e 98 24 06 3e 00 2e 4b 3e
       0.196181 0.21566583 0.13099897 0.19841766
000390 66 32 87 bd dd 92 1a be 98 2d fb 3d 94 62 66 3e
       -0.066014096 -0.15095086 0.12264556 0.22498542
0003a0 95 a4 35 be 6a 32 90 be 2c 6b 10 be 9c 05 36 be
       -0.17738564 -0.28163463 -0.14103383 -0.17775577
0003b0 fe 5c 14 be a9 c7 b2 3e 71 60 ff 3d 89 b8 b5 bd
       -0.14488599 0.34917954 0.124695666 -0.08873088
0003c0 4b 6a 52 be d8 ed 3b be 6e ca 18 3e 49 f8 96 3b
       -0.2054836 -0.18352449 0.14920971 0.0046072346
0003d0 74 f0 fe bd 7b b6 4f bd ba 53 d6 bd ca 73 11 be
       -0.124482065 -0.050711136 -0.10465188 -0.14204326
0003e0 3c f9 5c 3e 93 8c 48 be 59 b2 a3 3d 05 99 ef bd
       0.2157945 -0.19584875 0.079930015 -0.11699108
0003f0 fc 6b 9c bc 4c 89 81 be 21 81 be ba 8d cb f3 bd
       -0.01909446 -0.25300062 -0.0014534333 -0.119040586
