test/sagemaker_tests/huggingface_pytorch/inference/resources/tiny-distilbert-sst-2/pytorch_model.bin (torch, 264127 bytes, 40 tensors)

distilbert.embeddings.word_embeddings.weight f4 [30522, 2]
0	0x00000000	0.0
1	0x00000000	0.0
2	0xbcca8c0a	-0.024724979
3	0xbbc58f79	-0.006029066
4	0xb9a1e255	-0.00030876943
5	0xbc81f4a7	-0.01586373
6	0xbc33172d	-0.0109308185
7	0xbcc4912a	-0.023995
8	0x3c6d3bde	0.0144796055
9	0xbbabc8c4	-0.005242439
10	0xbd115fe7	-0.03549185
11	0x3c5f9027	0.013645208
12	0x3cd69107	0.026192201
13	0x3d538f0a	0.051650085
14	0xbc39dcc2	-0.011344137
15	0xbb547bbc	-0.0032422384
16	0x3aba26b8	0.0014202213
17	0x3c0ec960	0.008715004
18	0x3ba7c77d	0.0051202164
19	0x3bbb4130	0.005714558
20	0xbc57ccfb	-0.01317143
21	0x3cf114cb	0.02942886
22	0x3acaaebe	0.0015463454
23	0x3cc6da50	0.024274021
24	0xbaf13b35	-0.0018404486
25	0xbb8185af	-0.003952704
26	0x3c6bc0d0	0.014389232
27	0x3c8af929	0.016964512
28	0xbccdf62e	-0.025141802
29	0xbc900e77	-0.017585022
30	0x381c75c1	3.7302965e-05
31	0x3cdcc6d7	0.026950283
32	0x3ca2abb7	0.01985727
33	0xbcac8929	-0.021061497
34	0xbbb65dfc	-0.005565403
35	0xbcabdd76	-0.020979624
36	0x3c2f712d	0.010708136
37	0x3aca4e52	0.0015434718
38	0x3c9b8e18	0.018988654
39	0xbc99b766	-0.018764209
40	0xbc57eddd	-0.01317927
41	0x3ccdfc49	0.025144713
42	0xbc5f41c0	-0.013626516
43	0xbce752c9	-0.028237717
44	0xbcd799a1	-0.026318373
45	0x3c47b258	0.012188517
46	0x3c8825e4	0.01661963
47	0x3c70e455	0.014702876
48	0xbd37a87c	-0.044838414
49	0x3c037829	0.008024254
50	0x3d0adf21	0.0339042
51	0xba6bb45d	-0.0008991415
52	0xbcb51ba0	-0.0221079
53	0xbc6531d7	-0.0139889335
54	0x3bfe4e7d	0.0077608214
55	0xbc2861f9	-0.010277265
56	0xbc677006	-0.01412583
57	0xbc311b8d	-0.010809791
58	0x3cb34c93	0.0218871
59	0xbd3e111b	-0.04640303
60	0x3b8582d3	0.0040744334
61	0x3c342182	0.010994317
62	0xbcccdb2e	-0.025006857
63	0x3aab4069	0.001306546
64	0x3cf67392	0.030084405
65	0xbad22580	-0.0016032904
66	0x38240aa4	3.9110557e-05
67	0xbc4b9344	-0.012425248
68	0xbc141d70	-0.009040222
69	0xbd251f3c	-0.04031299
70	0x3a96cdae	0.0011505389
71	0xbc69124a	-0.014225552
72	0x3bc9f2d8	0.0061629824
73	0xb868c3bb	-5.54954e-05
74	0x3cdb15c5	0.026743779
75	0xbcd5c4b3	-0.02609477
76	0xbb2d53a6	-0.0026447563
77	0x3ac03eb8	0.0014667129
78	0xbb82c4bf	-0.003990739
79	0x3c7b2b19	0.0153300995
80	0xbcc7d315	-0.024392644
81	0xbc0c9203	-0.008579734
82	0x3c076641	0.008264125
83	0x3c330efd	0.010928866
84	0x3cc4ae67	0.024008943
85	0xbcc05d87	-0.023482097
86	0xbbdd29b9	-0.0067493585
87	0x3bf9a9fb	0.00761914
88	0x3cfebe0f	0.031096486
89	0x3cdb3589	0.026758926
90	0x3b29d92d	0.00259168
91	0xbc113948	-0.008863755
92	0x3d7ce9e0	0.061746478
93	0xbc49dd29	-0.012320795
94	0xbce26042	-0.02763379
95	0x3d09a6fc	0.033606514
96	0xbc90c823	-0.017673558
97	0x3b9ec4fe	0.0048452606
98	0x3b045a79	0.0020195527
99	0xbbdfea6a	-0.0068333643
100	0x3c72c45c	0.014817324
101	0x3cdec2a9	0.02719243
102	0xbbf5d0bb	-0.0075016893
103	0x3ceb9e2f	0.028761951
104	0x3d22f8a4	0.039787903
105	0x3a58b841	0.0008267202
106	0xbc4ae4bb	-0.012383635
107	0xbca54059	-0.020172285
108	0xbcbdce29	-0.023169594
109	0xbc968caf	-0.01837763
110	0x3c15db91	0.009146587
111	0x3d60f721	0.05492318
112	0xbd2838c4	-0.04106976
113	0xbc0b5ab0	-0.008505508
114	0x3cbc05fd	0.022952074
115	0x3c5112a5	0.012760793
116	0xbcc81cdd	-0.024427826
117	0x3b215556	0.0024617515
118	0x3b6230bb	0.003451391
119	0xbc223a23	-0.009901556
120	0x3cf43cf3	0.02981422
121	0x3bb3049c	0.005463196
122	0xbb173a3b	-0.002307548
123	0xbcc36022	-0.02384955
124	0x3c997c34	0.018735982
125	0x3a823bc7	0.0009936028
126	0x3ccf379b	0.02529507
127	0xbcb1f2d4	-0.021722235
128	0x3d047e9c	0.032347307
129	0x3c2df69d	0.010617879
130	0xbcc92d75	-0.024557808
131	0xbc07e066	-0.008293247
132	0x3c3302f3	0.010925996
133	0xbbd27e5b	-0.006423754
134	0xbc9e1c68	-0.019300655
135	0xbd1069f2	-0.035257287
136	0x3c96c8d9	0.018406319
137	0x3c216a96	0.009852072
138	0x3d348500	0.04407215
139	0xbcfa87ef	-0.030582396
140	0xbc4176a7	-0.011808074
141	0xbcbdee49	-0.023184912
142	0x3d18d303	0.03731061
143	0xbbd9e90b	-0.0066500953
144	0x39545ba2	0.00020252031
145	0x3cde8453	0.027162706
146	0x3d1610f9	0.03663728
147	0xbb8ceb4b	-0.00430051
148	0x3c55ac22	0.013041528
149	0xbbb45b39	-0.0055040387
150	0x3bf89c13	0.007586965
151	0x3c94de6a	0.018172462
152	0x3883d894	6.2869076e-05
153	0x3bf3af89	0.007436697
154	0xbcef3af4	-0.029202916
155	0xbcb0484e	-0.021518853
156	0x3c174608	0.009233005
157	0x3c28f82b	0.010313074
158	0xbd0db7ed	-0.034599233
159	0xbcb5170b	-0.022105714
160	0x3cd22e0c	0.025656722
161	0x3c6f76e9	0.014615753
162	0x3b2cb9c0	0.0026355833
163	0xbb0dbcc9	-0.0021627417
164	0xbd47e674	-0.04880376
165	0xbc496dd3	-0.012294251
166	0xbb129d74	-0.0022371681
167	0x3b91a6bf	0.0044449265
168	0xbcc808b3	-0.02441821
169	0xbc53ac92	-0.012919562
170	0x3c958b4b	0.018254897
171	0x3ca95e4d	0.020674849
172	0xbd0c1942	-0.034203775
173	0x3cbadbeb	0.022809943
174	0xbb05b9b4	-0.0020404877
175	0xbc0546ec	-0.008134585
176	0xba97dad2	-0.0011585599
177	0xbc5b541b	-0.0133867515
178	0x3d098e11	0.03358275
179	0x3cdfcf18	0.02732043
180	0xbccdfc80	-0.025144815
181	0xbce6f617	-0.028193517
182	0x3d4b58a1	0.04964507
183	0x3bf19612	0.007372626
184	0xbb9b483d	-0.004738836
185	0xbb47d875	-0.0030494009
186	0x3cedd698	0.02903299
187	0x3b493a49	0.0030704907
188	0xbd0b83e1	-0.034061316
189	0xbc7a28eb	-0.015268545
190	0xbc6cfc3c	-0.014464434
191	0xbb0ff4d8	-0.0021966007
192	0xbcf077d8	-0.029354021
193	0xbc96ddf7	-0.018416388
194	0x3b0280d4	0.0019913213
195	0x3b25f5ef	0.002532359
196	0xbcdabd97	-0.026701732
197	0xbc40c48f	-0.011765613
198	0xbc54c582	-0.012986543
199	0x394a06ae	0.0001926671
200	0xbc050070	-0.00811778
201	0x3aa001b1	0.0012207535
202	0xbbd60600	-0.006531477
203	0xbc80f76f	-0.015742986
204	0x3bcb67fe	0.006207465
205	0x3c8be40d	0.017076517
206	0x3d24bd3d	0.040219534
207	0xba75bae6	-0.00093738583
208	0x3c8f3641	0.017481925
209	0xbc9d7d79	-0.01922487
210	0xbd027fb6	-0.031860076
211	0xbb333fed	-0.0027351335
212	0x3b50f325	0.0031883207
213	0x3c89bb22	0.016812865
214	0xbc659cb7	-0.0140144145
215	0x3ba9ecd2	0.005185702
216	0xbcfb71a3	-0.030693835
217	0x3c9bc944	0.01901687
218	0xbb76f399	-0.0037681817
219	0xbc780cd4	-0.015139777
220	0x3d223100	0.03959751
221	0xbb42822d	-0.0029679642
222	0x3d2f9634	0.042867854
223	0x3a790a9d	0.00095001777
224	0x3c7f2f37	0.015575222
225	0x3cbd1515	0.023081342
226	0x3cffdf9b	0.031234553
227	0xbc5817a6	-0.013189232
228	0x3cf72b20	0.03017193
229	0x3bb3c32e	0.0054859137
230	0x3c8a8b2e	0.01691207
231	0x3d3c640b	0.045993846
232	0x3c5eaccf	0.0135910055
233	0x3c1f8cd2	0.009738164
234	0xbc805bb7	-0.015668733
235	0xbd0540d7	-0.03253254
236	0x3bae7216	0.0053236587
237	0xbbd3cc70	-0.00646358
238	0x3b97c792	0.004631945
239	0xbc1e7750	-0.009672001
240	0xbc73a20f	-0.014870181
241	0xbbe03c8b	-0.006843155
242	0xbbcbe9f5	-0.006222958
243	0xbcbcb902	-0.023037437
244	0xbcfb8e1e	-0.030707415
245	0xbc809547	-0.015696181
246	0xbcb284be	-0.021791812
247	0x3cccf61d	0.0250197
248	0x3c59b82a	0.013288537
249	0xbd113c90	-0.035458148
250	0x3b09facd	0.002105403
251	0xbc945bdc	-0.018110208
252	0x3cb2812a	0.021790106
253	0xbca3de19	-0.020003365
254	0xbcc8602d	-0.024459923
255	0xbd486c22	-0.04893125

distilbert.embeddings.position_embeddings.weight f4 [512, 2]
0	0xbc303878	-0.010755651
1	0x3cb2c58e	0.021822717
2	0xbc187e73	-0.009307492
3	0x3c3bc7f2	0.011461245
4	0xbd0f77b6	-0.035026275
5	0x3ccf2db2	0.025290344
6	0x3c264ee0	0.010150641
7	0x3cfa7795	0.0305746
8	0xbc94acf6	-0.01814888
9	0x3cc848c5	0.024448762
10	0x3d397540	0.045277834
11	0x3a9fc689	0.0012189905
12	0x3be1913d	0.006883769
13	0xbab26134	-0.0013609291
14	0x3c517bb9	0.012785845
15	0xbce0d05c	-0.027443103
16	0xbbda3778	-0.0066594444
17	0xbcbbed18	-0.022940204
18	0x3ce6e56e	0.028185572
19	0xbc667353	-0.014065581
20	0xbcafe2f4	-0.021470524
21	0xbcb5c7ae	-0.022189941
22	0x3bd8d95c	0.006617708
23	0x3c78ee80	0.015193582
24	0xbc7e1399	-0.015507602
25	0x3cac28e5	0.021015594
26	0x3cab291b	0.020893624
27	0xbce7c535	-0.028292278
28	0xbc6c641b	-0.014428164
29	0x3ccb8ead	0.024848307
30	0xbbe8f96b	-0.007109811
31	0xbc749235	-0.014927437
32	0xbbea6850	-0.0071535483
33	0x3ce71993	0.028210437
34	0x3b0925d4	0.0020927088
35	0x3ac98590	0.0015374888
36	0x3d4c89e9	0.04993621
37	0xbc91a5e1	-0.017779293
38	0xbc9c7587	-0.01909901
39	0xbb6a0552	-0.0035708738
40	0xbce58c98	-0.028021142
41	0x3c86274f	0.016376166
42	0x3b0eb17b	0.0021773267
43	0xbc619f73	-0.013770926
44	0x3c22f105	0.009945159
45	0x3c95db3c	0.018293016
46	0xbc6a4b10	-0.014300123
47	0xbcc43de5	-0.023955295
48	0x3d187a4d	0.03722601
49	0xbd17ebf7	-0.037090268
50	0xbc6686de	-0.014070241
51	0xba4f1a3d	-0.0007900333
52	0xbad45f78	-0.0016202768
53	0x3d13dc33	0.03609867
54	0x3b37643e	0.0027983333
55	0xbc1375fc	-0.009000298
56	0x3d24fc0f	0.040279444
57	0xbb47abc1	-0.0030467364
58	0x3c955996	0.018231194
59	0xbc60e1e9	-0.013725736
60	0x3cc9a8d0	0.024616629
61	0xbc8d118c	-0.017220281
62	0xbbcb4c09	-0.0062041325
63	0x3b212cb4	0.0024593296
64	0xbc9e9aff	-0.019361017
65	0x3d2d7f58	0.042357773
66	0x3cec5c4e	0.028852608
67	0xbbdc0432	-0.0067143673
68	0x3d6fa02e	0.05850237
69	0x3b338bc0	0.002739653
70	0xbcaa19d7	-0.020764275
71	0x3cb1f02d	0.02172097
72	0x3b3e0d5b	0.002899966
73	0xbc230ae2	-0.009951325
74	0xbbed9014	-0.0072498415
75	0xbc1bdc93	-0.009513038
76	0x3a4ee742	0.00078927365
77	0xbcb8a380	-0.0225389
78	0x3b92e1a7	0.0044824663
79	0xbc8d7417	-0.01726727
80	0xbb556ec0	-0.0032567233
81	0x3c699aee	0.0142581295
82	0xbca4da0e	-0.020123508
83	0xbccf8bde	-0.025335249
84	0x3ce0cd74	0.027441718
85	0x3d07e1fa	0.033174492
86	0xbb1d1ac9	-0.0023972264
87	0x3c6ebd60	0.014571518
88	0xbc3cf082	-0.011531951
89	0x3cc05b79	0.023481118
90	0xbbf6d4ce	-0.0075326925
91	0xbd0082d4	-0.031374767
92	0x3cf9618a	0.030442018
93	0x3c2ef1fc	0.010677811
94	0x3d21643e	0.03940224
95	0x3cbe4bd8	0.023229524
96	0xbc905e8c	-0.017623208
97	0x3c9c88eb	0.019108256
98	0xbc8865a8	-0.016650036
99	0x3cd80750	0.026370674
100	0xbc48b086	-0.012249118
101	0x3b806917	0.0039187777
102	0xbc835f73	-0.016036725
103	0x3b6d2ba5	0.0036189344
104	0x3b6f0fd5	0.0036477942
105	0xbbde286f	-0.0067797224
106	0x3cf68a3c	0.030095212
107	0x3cee4e5e	0.029090103
108	0xbc99d26b	-0.018777093
109	0x3c041b79	0.008063191
110	0x3c8ae357	0.016954107
111	0xbd05a210	-0.032625258
112	0x3bd171d2	0.0063917423
113	0xbca3427f	-0.019929169
114	0x3b412859	0.0029473512
115	0xbd38c24a	-0.045107163
116	0xbd274ac5	-0.04084279
117	0x3aa34440	0.0012456253
118	0xbd294f4a	-0.04133538
119	0x3c92a380	0.017900229
120	0xbc477655	-0.012174209
121	0xbcc10018	-0.023559615
122	0xbbd1cd1b	-0.0064026243
123	0x3b31d8e7	0.002713734
124	0x3c12509b	0.008930351
125	0xbb578169	-0.003288353
126	0x3d021258	0.031755775
127	0x3d0f93e8	0.035053164
128	0x39cefb15	0.00039478453
129	0xbc8241bc	-0.015900485
130	0xbcd91ebb	-0.026503911
131	0x3c4445b8	0.011979513
132	0xbcc6a474	-0.02424834
133	0xbcea16d7	-0.028575344
134	0xbc890eee	-0.016730752
135	0x3c79681d	0.015222576
136	0x3a7d4f9b	0.0009663046
137	0x3bf04907	0.0073329243
138	0xbcd30aaa	-0.025761921
139	0xbcc0fa89	-0.023556964
140	0xbc9723c8	-0.018449679
141	0x3bc4a4f4	0.0060011093
142	0x3cf6e3a0	0.030137837
143	0x3bf67026	0.0075206934
144	0x3b6fa0a5	0.0036564257
145	0xbc3518a7	-0.011053241
146	0x3ba10ca6	0.004914838
147	0xbc96a36b	-0.01838847
148	0xbbb35440	-0.00547269
149	0x3caaf721	0.020869793
150	0x3c84098d	0.016117835
151	0xbd1b9204	-0.03798105
152	0x3c29d650	0.0103660375
153	0xbc5950e1	-0.013263912
154	0xbceb20fb	-0.02870225
155	0xbbf0df34	-0.0073508266
156	0x3c29a272	0.010353671
157	0xbcf00d33	-0.029303169
158	0xbd170b5d	-0.03687607
159	0xbd1f4dec	-0.03889267
160	0xbcc52153	-0.024063742
161	0xbb766d01	-0.0037601592
162	0x3b4c7625	0.003119835
163	0xbd18a88e	-0.03727012
164	0xbc16b9b8	-0.009199552
165	0x3b4e33fe	0.0031464095
166	0xbcafe516	-0.021471541
167	0xbc7c8d55	-0.015414556
168	0x3cdaee5c	0.026724987
169	0x3c281f04	0.010261301
170	0xbd349bb7	-0.044093814
171	0xbd11fcb7	-0.0356414
172	0xbcfbcf8a	-0.03073861
173	0x3cf92917	0.030415101
174	0xbcc0941c	-0.023508124
175	0x3b95ba3d	0.0045693205
176	0x3d00f61f	0.03148472
177	0xbcd3b9bc	-0.025845401
178	0xbbd7caec	-0.0065854695
179	0xbc6d1b75	-0.014471878
180	0xbcf94dc5	-0.030432591
181	0x3cab7e19	0.020934151
182	0xbbbe102e	-0.0058002686
183	0xbb4c4e06	-0.0031174435
184	0xbc292504	-0.010323767
185	0xbc78fac6	-0.015196508
186	0xbd175d84	-0.036954418
187	0xbb4d5887	-0.0031333284
188	0x3c6d551d	0.014485625
189	0x39aba3de	0.00032737752
190	0x3d0b9f82	0.034087665
191	0x3c2315b9	0.00995391
192	0x3b3a6895	0.0028443683
193	0x3d0572f9	0.03258035
194	0x3b5e501d	0.0033922263
195	0x3cd891c0	0.026436687
196	0xbcbacedd	-0.022803718
197	0x3c6ecac7	0.014574713
198	0x3ba5b773	0.0050572692
199	0x3cf6848c	0.0300925
200	0x3c786ee2	0.015163155
201	0xbc4a4e7d	-0.012347815
202	0xbc7360fd	-0.014854667
203	0xbcd77f3d	-0.02630579
204	0x3ae40c85	0.0017398751
205	0x3c83d452	0.016092453
206	0xbd790438	-0.06079504
207	0xbd0037df	-0.031303283
208	0x3a83b2e7	0.0010047824
209	0xbd303440	-0.04301858
210	0x3d352413	0.044223856
211	0xbc3e5286	-0.011616355
212	0x3c8e3d1e	0.017363127
213	0xbaa2f3f0	-0.0012432318
214	0xbc7e4546	-0.015519446
215	0xbc907d1d	-0.017637784
216	0x3c6056ee	0.013692601
217	0x3cb4323d	0.021996612
218	0x3c9eb58b	0.019373676
219	0x3b8c796b	0.004286935
220	0x3cb03f32	0.021514509
221	0x3c822f04	0.01589156
222	0xbba9ba3e	-0.0051796725
223	0x3c8ca277	0.017167313
224	0xbb63b645	-0.0034746092
225	0xbc991c30	-0.018690199
226	0x3c2d5f47	0.010581798
227	0xbd048889	-0.032356773
228	0xbb601586	-0.0034192516
229	0x3c04dcab	0.008109252
230	0x3c3ac7fe	0.011400221
231	0xbc84a174	-0.016190268
232	0xbcef1999	-0.02918701
233	0xbc9d9903	-0.019238
234	0xb9b50f45	-0.00034534387
235	0xbbb08ed8	-0.005388122
236	0xbc346c82	-0.011012198
237	0xbc839eed	-0.016066993
238	0xbc3055f0	-0.010762677
239	0xbc8a2b01	-0.016866209
240	0x3d0c7f89	0.034301315
241	0xbcd4024a	-0.025879998
242	0x3b50ca0c	0.003185871
243	0x3c745237	0.01491218
244	0xbc836d57	-0.016043348
245	0xbc7d9377	-0.015477053
246	0x3c6a7753	0.014310676
247	0x3c7d586b	0.015462975
248	0x3cd8f8d2	0.026485834
249	0x3cf172e1	0.029473724
250	0x3cb9e0e2	0.02269024
251	0xbc6b2193	-0.014351266
252	0xbc6133a9	-0.013745227
253	0xbca8c461	-0.020601453
254	0x3c3e6d69	0.011622765
255	0x3c1a6b68	0.009425022

distilbert.embeddings.LayerNorm.weight f4 [2]
0	0x3f800000	1.0
1	0x3f800000	1.0

distilbert.embeddings.LayerNorm.bias f4 [2]
0	0x00000000	0.0
1	0x00000000	0.0

distilbert.transformer.layer.0.attention.q_lin.weight f4 [2, 2]
0	0x3c186307	0.009300954
1	0x3c8dc965	0.017307946
2	0xbd1d2fa2	-0.038375504
3	0x3c8a9ee0	0.01692146

distilbert.transformer.layer.0.attention.q_lin.bias f4 [2]
0	0x00000000	0.0
1	0x00000000	0.0

distilbert.transformer.layer.0.attention.k_lin.weight f4 [2, 2]
0	0x3d0087a7	0.03137937
1	0x3c81630a	0.015794296
2	0x3bcb35f6	0.006201501
3	0xbb6ecbbf	-0.003643736

distilbert.transformer.layer.0.attention.k_lin.bias f4 [2]
0	0x00000000	0.0
1	0x00000000	0.0

distilbert.transformer.layer.0.attention.v_lin.weight f4 [2, 2]
0	0xbd03db70	-0.032191694
1	0xbb9fc2f7	-0.0048755365
2	0x3b360fa1	0.0027780312
3	0xbb822d3c	-0.0039726775

distilbert.transformer.layer.0.attention.v_lin.bias f4 [2]
0	0x00000000	0.0
1	0x00000000	0.0

distilbert.transformer.layer.0.attention.out_lin.weight f4 [2, 2]
0	0x3c953a04	0.01821614
1	0xbc317afa	-0.010832543
2	0x3cf6446e	0.030061927
3	0xbd103d76	-0.035214864

distilbert.transformer.layer.0.attention.out_lin.bias f4 [2]
0	0x00000000	0.0
1	0x00000000	0.0

distilbert.transformer.layer.0.sa_layer_norm.weight f4 [2]
0	0x3f800000	1.0
1	0x3f800000	1.0

distilbert.transformer.layer.0.sa_layer_norm.bias f4 [2]
0	0x00000000	0.0
1	0x00000000	0.0

distilbert.transformer.layer.0.ffn.lin1.weight f4 [2, 2]
0	0x3c0c0059	0.008545005
1	0x3c95f740	0.018306375
2	0xbbf48e4a	-0.0074632512
3	0xbc818dbd	-0.015814656

distilbert.transformer.layer.0.ffn.lin1.bias f4 [2]
0	0x00000000	0.0
1	0x00000000	0.0

distilbert.transformer.layer.0.ffn.lin2.weight f4 [2, 2]
0	0xbc30525f	-0.010761826
1	0xbc77ba82	-0.0151201505
2	0xbb105d1f	-0.002202816
3	0xbbd1ee39	-0.006406572

distilbert.transformer.layer.0.ffn.lin2.bias f4 [2]
0	0x00000000	0.0
1	0x00000000	0.0

distilbert.transformer.layer.0.output_layer_norm.weight f4 [2]
0	0x3f800000	1.0
1	0x3f800000	1.0

distilbert.transformer.layer.0.output_layer_norm.bias f4 [2]
0	0x00000000	0.0
1	0x00000000	0.0

distilbert.transformer.layer.1.attention.q_lin.weight f4 [2, 2]
0	0x3c797cb3	0.0152274845
1	0x3c19452f	0.009354874
2	0xbc4b6655	-0.012414535
3	0xbd4ebe1b	-0.050474267

distilbert.transformer.layer.1.attention.q_lin.bias f4 [2]
0	0x00000000	0.0
1	0x00000000	0.0

distilbert.transformer.layer.1.attention.k_lin.weight f4 [2, 2]
0	0x3c90a799	0.017658042
1	0xbb332b44	-0.002733902
2	0xbc96bee5	-0.018401572
3	0x3a7ab7b1	0.00095641153

distilbert.transformer.layer.1.attention.k_lin.bias f4 [2]
0	0x00000000	0.0
1	0x00000000	0.0

distilbert.transformer.layer.1.attention.v_lin.weight f4 [2, 2]
0	0xb9df7a47	-0.00042624978
1	0xbb26b40a	-0.0025436901
2	0x3cb2173b	0.021739593
3	0x3b9bebf8	0.0047583543

distilbert.transformer.layer.1.attention.v_lin.bias f4 [2]
0	0x00000000	0.0
1	0x00000000	0.0

distilbert.transformer.layer.1.attention.out_lin.weight f4 [2, 2]
0	0xbca3298f	-0.019917278
1	0xbc6df9e7	-0.014524913
2	0xbc1d5ae1	-0.009604187
3	0x3c89a9d3	0.016804611

distilbert.transformer.layer.1.attention.out_lin.bias f4 [2]
0	0x00000000	0.0
1	0x00000000	0.0

distilbert.transformer.layer.1.sa_layer_norm.weight f4 [2]
0	0x3f800000	1.0
1	0x3f800000	1.0

distilbert.transformer.layer.1.sa_layer_norm.bias f4 [2]
0	0x00000000	0.0
1	0x00000000	0.0

distilbert.transformer.layer.1.ffn.lin1.weight f4 [2, 2]
0	0xbc754ae3	-0.014971468
1	0xbc7d2d4b	-0.015452693
2	0xbba529da	-0.0050403895
3	0x3c60b28c	0.013714444

distilbert.transformer.layer.1.ffn.lin1.bias f4 [2]
0	0x00000000	0.0
1	0x00000000	0.0

distilbert.transformer.layer.1.ffn.lin2.weight f4 [2, 2]
0	0x3c8fc947	0.017552031
1	0x3ca92701	0.020648481
2	0x3a9e2f0c	0.0012068464
3	0xbbffed1e	-0.007810249

distilbert.transformer.layer.1.ffn.lin2.bias f4 [2]
0	0x00000000	0.0
1	0x00000000	0.0

distilbert.transformer.layer.1.output_layer_norm.weight f4 [2]
0	0x3f800000	1.0
1	0x3f800000	1.0

distilbert.transformer.layer.1.output_layer_norm.bias f4 [2]
0	0x00000000	0.0
1	0x00000000	0.0

pre_classifier.weight f4 [2, 2]
0	0xbcbf5681	-0.023356678
1	0x3c15afb7	0.009136132
2	0x3b9d0b63	0.004792617
3	0xbb6fde53	-0.0036601021

pre_classifier.bias f4 [2]
0	0x00000000	0.0
1	0x00000000	0.0

classifier.weight f4 [2, 2]
0	0x3c8733c9	0.016504185
1	0xbc6d1486	-0.014470225
2	0x3d06609c	0.032806978
3	0x3cbf6c0c	0.02336695

classifier.bias f4 [2]
0	0x00000000	0.0
1	0x00000000	0.0
